node {
  name: "global_step/Initializer/zeros"
  op: "Const"
  attr {
    key: "_class"
    value {
      list {
        s: "loc:@global_step"
      }
    }
  }
  attr {
    key: "_output_shapes"
    value {
      list {
        shape {
        }
      }
    }
  }
  attr {
    key: "dtype"
    value {
      type: DT_INT64
    }
  }
  attr {
    key: "value"
    value {
      tensor {
        dtype: DT_INT64
        tensor_shape {
        }
        int64_val: 0
      }
    }
  }
}
node {
  name: "global_step"
  op: "VariableV2"
  attr {
    key: "_class"
    value {
      list {
        s: "loc:@global_step"
      }
    }
  }
  attr {
    key: "_output_shapes"
    value {
      list {
        shape {
        }
      }
    }
  }
  attr {
    key: "container"
    value {
      s: ""
    }
  }
  attr {
    key: "dtype"
    value {
      type: DT_INT64
    }
  }
  attr {
    key: "shape"
    value {
      shape {
      }
    }
  }
  attr {
    key: "shared_name"
    value {
      s: ""
    }
  }
}
node {
  name: "global_step/Assign"
  op: "Assign"
  input: "global_step"
  input: "global_step/Initializer/zeros"
  attr {
    key: "T"
    value {
      type: DT_INT64
    }
  }
  attr {
    key: "_class"
    value {
      list {
        s: "loc:@global_step"
      }
    }
  }
  attr {
    key: "_output_shapes"
    value {
      list {
        shape {
        }
      }
    }
  }
  attr {
    key: "use_locking"
    value {
      b: true
    }
  }
  attr {
    key: "validate_shape"
    value {
      b: true
    }
  }
}
node {
  name: "global_step/read"
  op: "Identity"
  input: "global_step"
  attr {
    key: "T"
    value {
      type: DT_INT64
    }
  }
  attr {
    key: "_class"
    value {
      list {
        s: "loc:@global_step"
      }
    }
  }
  attr {
    key: "_output_shapes"
    value {
      list {
        shape {
        }
      }
    }
  }
}
node {
  name: "global_step/IsVariableInitialized"
  op: "IsVariableInitialized"
  input: "global_step"
  attr {
    key: "_class"
    value {
      list {
        s: "loc:@global_step"
      }
    }
  }
  attr {
    key: "_output_shapes"
    value {
      list {
        shape {
        }
      }
    }
  }
  attr {
    key: "dtype"
    value {
      type: DT_INT64
    }
  }
}
node {
  name: "global_step/cond/Switch"
  op: "Switch"
  input: "global_step/IsVariableInitialized"
  input: "global_step/IsVariableInitialized"
  attr {
    key: "T"
    value {
      type: DT_BOOL
    }
  }
  attr {
    key: "_output_shapes"
    value {
      list {
        shape {
        }
        shape {
        }
      }
    }
  }
}
node {
  name: "global_step/cond/switch_t"
  op: "Identity"
  input: "global_step/cond/Switch:1"
  attr {
    key: "T"
    value {
      type: DT_BOOL
    }
  }
  attr {
    key: "_output_shapes"
    value {
      list {
        shape {
        }
      }
    }
  }
}
node {
  name: "global_step/cond/switch_f"
  op: "Identity"
  input: "global_step/cond/Switch"
  attr {
    key: "T"
    value {
      type: DT_BOOL
    }
  }
  attr {
    key: "_output_shapes"
    value {
      list {
        shape {
        }
      }
    }
  }
}
node {
  name: "global_step/cond/pred_id"
  op: "Identity"
  input: "global_step/IsVariableInitialized"
  attr {
    key: "T"
    value {
      type: DT_BOOL
    }
  }
  attr {
    key: "_output_shapes"
    value {
      list {
        shape {
        }
      }
    }
  }
}
node {
  name: "global_step/cond/read"
  op: "Identity"
  input: "global_step/cond/read/Switch:1"
  attr {
    key: "T"
    value {
      type: DT_INT64
    }
  }
  attr {
    key: "_output_shapes"
    value {
      list {
        shape {
        }
      }
    }
  }
}
node {
  name: "global_step/cond/read/Switch"
  op: "RefSwitch"
  input: "global_step"
  input: "global_step/cond/pred_id"
  attr {
    key: "T"
    value {
      type: DT_INT64
    }
  }
  attr {
    key: "_class"
    value {
      list {
        s: "loc:@global_step"
      }
    }
  }
  attr {
    key: "_output_shapes"
    value {
      list {
        shape {
        }
        shape {
        }
      }
    }
  }
}
node {
  name: "global_step/cond/Switch_1"
  op: "Switch"
  input: "global_step/Initializer/zeros"
  input: "global_step/cond/pred_id"
  attr {
    key: "T"
    value {
      type: DT_INT64
    }
  }
  attr {
    key: "_class"
    value {
      list {
        s: "loc:@global_step"
      }
    }
  }
  attr {
    key: "_output_shapes"
    value {
      list {
        shape {
        }
        shape {
        }
      }
    }
  }
}
node {
  name: "global_step/cond/Merge"
  op: "Merge"
  input: "global_step/cond/Switch_1"
  input: "global_step/cond/read"
  attr {
    key: "N"
    value {
      i: 2
    }
  }
  attr {
    key: "T"
    value {
      type: DT_INT64
    }
  }
  attr {
    key: "_output_shapes"
    value {
      list {
        shape {
        }
        shape {
        }
      }
    }
  }
}
node {
  name: "global_step/add/y"
  op: "Const"
  attr {
    key: "_output_shapes"
    value {
      list {
        shape {
        }
      }
    }
  }
  attr {
    key: "dtype"
    value {
      type: DT_INT64
    }
  }
  attr {
    key: "value"
    value {
      tensor {
        dtype: DT_INT64
        tensor_shape {
        }
        int64_val: 0
      }
    }
  }
}
node {
  name: "global_step/add"
  op: "AddV2"
  input: "global_step/cond/Merge"
  input: "global_step/add/y"
  attr {
    key: "T"
    value {
      type: DT_INT64
    }
  }
  attr {
    key: "_output_shapes"
    value {
      list {
        shape {
        }
      }
    }
  }
}
node {
  name: "Const"
  op: "Const"
  device: "/device:CPU:0"
  attr {
    key: "_output_shapes"
    value {
      list {
        shape {
          dim {
            size: 2520
          }
        }
      }
    }
  }
  attr {
    key: "dtype"
    value {
      type: DT_STRING
    }
  }
  attr {
    key: "value"
    value {
      tensor {
        dtype: DT_STRING
        tensor_shape {
          dim {
            size: 2520
          }
        }
        string_val: "E:\\PythonProject\\System\\system\\user_data\\test\\datasets\\NEU-CLS\\train\\Cr\\Cr_260.jpg"
        string_val: "E:\\PythonProject\\System\\system\\user_data\\test\\datasets\\NEU-CLS\\train\\Cr\\Cr_79.jpg"
        string_val: "E:\\PythonProject\\System\\system\\user_data\\test\\datasets\\NEU-CLS\\train\\RS\\RS_201.jpg"
        string_val: "E:\\PythonProject\\System\\system\\user_data\\test\\datasets\\NEU-CLS\\train\\In\\In_113.jpg"
        string_val: "E:\\PythonProject\\System\\system\\user_data\\test\\datasets\\NEU-CLS\\train\\In\\In_151.jpg"
        string_val: "E:\\PythonProject\\System\\system\\user_data\\test\\datasets\\NEU-CLS\\train\\In\\In_95.jpg"
        string_val: "E:\\PythonProject\\System\\system\\user_data\\test\\datasets\\NEU-CLS\\train\\Pa\\Pa_243.jpg"
        string_val: "E:\\PythonProject\\System\\system\\user_data\\test\\datasets\\NEU-CLS\\train\\In\\In_213.jpg"
        string_val: "E:\\PythonProject\\System\\system\\user_data\\test\\datasets\\NEU-CLS\\train\\In\\In_46.jpg"
        string_val: "E:\\PythonProject\\System\\system\\user_data\\test\\datasets\\NEU-CLS\\train\\In\\In_67.jpg"
        string_val: "E:\\PythonProject\\System\\system\\user_data\\test\\datasets\\NEU-CLS\\train\\RS\\RS_26.jpg"
        string_val: "E:\\PythonProject\\System\\system\\user_data\\test\\datasets\\NEU-CLS\\train\\In\\In_107.jpg"
        string_val: "E:\\PythonProject\\System\\system\\user_data\\test\\datasets\\NEU-CLS\\train\\Cr\\Cr_217.jpg"
        string_val: "E:\\PythonProject\\System\\system\\user_data\\test\\datasets\\NEU-CLS\\train\\Cr\\Cr_183.jpg"
        string_val: "E:\\PythonProject\\System\\system\\user_data\\test\\datasets\\NEU-CLS\\train\\In\\In_15.jpg"
        string_val: "E:\\PythonProject\\System\\system\\user_data\\test\\datasets\\NEU-CLS\\train\\Sc\\Sc_168.jpg"
        string_val: "E:\\PythonProject\\System\\system\\user_data\\test\\datasets\\NEU-CLS\\train\\PS\\PS_46.jpg"
        string_val: "E:\\PythonProject\\System\\system\\user_data\\test\\datasets\\NEU-CLS\\train\\Cr\\Cr_143.jpg"
        string_val: "E:\\PythonProject\\System\\system\\user_data\\test\\datasets\\NEU-CLS\\train\\Pa\\Pa_298.jpg"
        string_val: "E:\\PythonProject\\System\\system\\user_data\\test\\datasets\\NEU-CLS\\train\\Cr\\Cr_76.jpg"
        string_val: "E:\\PythonProject\\System\\system\\user_data\\test\\datasets\\NEU-CLS\\train\\In\\In_31.jpg"
        string_val: "E:\\PythonProject\\System\\system\\user_data\\test\\datasets\\NEU-CLS\\train\\RS\\RS_178.jpg"
        string_val: "E:\\PythonProject\\System\\system\\user_data\\test\\datasets\\NEU-CLS\\train\\RS\\RS_213.jpg"
        string_val: "E:\\PythonProject\\System\\system\\user_data\\test\\datasets\\NEU-CLS\\train\\Sc\\Sc_231.jpg"
        string_val: "E:\\PythonProject\\System\\system\\user_data\\test\\datasets\\NEU-CLS\\train\\In\\In_232.jpg"
        string_val: "E:\\PythonProject\\System\\system\\user_data\\test\\datasets\\NEU-CLS\\train\\RS\\RS_29.jpg"
        string_val: "E:\\PythonProject\\System\\system\\user_data\\test\\datasets\\NEU-CLS\\train\\Cr\\Cr_114.jpg"
        string_val: "E:\\PythonProject\\System\\system\\user_data\\test\\datasets\\NEU-CLS\\train\\In\\In_58.jpg"
        string_val: "E:\\PythonProject\\System\\system\\user_data\\test\\datasets\\NEU-CLS\\train\\Cr\\Cr_218.jpg"
        string_val: "E:\\PythonProject\\System\\system\\user_data\\test\\datasets\\NEU-CLS\\train\\PS\\PS_76.jpg"
        string_val: "E:\\PythonProject\\System\\system\\user_data\\test\\datasets\\NEU-CLS\\train\\Sc\\Sc_13.jpg"
        string_val: "E:\\PythonProject\\System\\system\\user_data\\test\\datasets\\NEU-CLS\\train\\Sc\\Sc_289.jpg"
        string_val: "E:\\PythonProject\\System\\system\\user_data\\test\\datasets\\NEU-CLS\\train\\PS\\PS_200.jpg"
        string_val: "E:\\PythonProject\\System\\system\\user_data\\test\\datasets\\NEU-CLS\\train\\RS\\RS_115.jpg"
        string_val: "E:\\PythonProject\\System\\system\\user_data\\test\\datasets\\NEU-CLS\\train\\Pa\\Pa_243.jpg"
        string_val: "E:\\PythonProject\\System\\system\\user_data\\test\\datasets\\NEU-CLS\\train\\RS\\RS_81.jpg"
        string_val: "E:\\PythonProject\\System\\system\\user_data\\test\\datasets\\NEU-CLS\\train\\Cr\\Cr_156.jpg"
        string_val: "E:\\PythonProject\\System\\system\\user_data\\test\\datasets\\NEU-CLS\\train\\RS\\RS_136.jpg"
        string_val: "E:\\PythonProject\\System\\system\\user_data\\test\\datasets\\NEU-CLS\\train\\Pa\\Pa_184.jpg"
        string_val: "E:\\PythonProject\\System\\system\\user_data\\test\\datasets\\NEU-CLS\\train\\Sc\\Sc_277.jpg"
        string_val: "E:\\PythonProject\\System\\system\\user_data\\test\\datasets\\NEU-CLS\\train\\Pa\\Pa_163.jpg"
        string_val: "E:\\PythonProject\\System\\system\\user_data\\test\\datasets\\NEU-CLS\\train\\Sc\\Sc_100.jpg"
        string_val: "E:\\PythonProject\\System\\system\\user_data\\test\\datasets\\NEU-CLS\\train\\Cr\\Cr_89.jpg"
        string_val: "E:\\PythonProject\\System\\system\\user_data\\test\\datasets\\NEU-CLS\\train\\Sc\\Sc_2.jpg"
        string_val: "E:\\PythonProject\\System\\system\\user_data\\test\\datasets\\NEU-CLS\\train\\In\\In_50.jpg"
        string_val: "E:\\PythonProject\\System\\system\\user_data\\test\\datasets\\NEU-CLS\\train\\Pa\\Pa_67.jpg"
        string_val: "E:\\PythonProject\\System\\system\\user_data\\test\\datasets\\NEU-CLS\\train\\PS\\PS_293.jpg"
        string_val: "E:\\PythonProject\\System\\system\\user_data\\test\\datasets\\NEU-CLS\\train\\Pa\\Pa_286.jpg"
        string_val: "E:\\PythonProject\\System\\system\\user_data\\test\\datasets\\NEU-CLS\\train\\Pa\\Pa_4.jpg"
        string_val: "E:\\PythonProject\\System\\system\\user_data\\test\\datasets\\NEU-CLS\\train\\In\\In_130.jpg"
        string_val: "E:\\PythonProject\\System\\system\\user_data\\test\\datasets\\NEU-CLS\\train\\PS\\PS_243.jpg"
        string_val: "E:\\PythonProject\\System\\system\\user_data\\test\\datasets\\NEU-CLS\\train\\Sc\\Sc_267.jpg"
        string_val: "E:\\PythonProject\\System\\system\\user_data\\test\\datasets\\NEU-CLS\\train\\PS\\PS_266.jpg"
        string_val: "E:\\PythonProject\\System\\system\\user_data\\test\\datasets\\NEU-CLS\\train\\Pa\\Pa_253.jpg"
        string_val: "E:\\PythonProject\\System\\system\\user_data\\test\\datasets\\NEU-CLS\\train\\In\\In_210.jpg"
        string_val: "E:\\PythonProject\\System\\system\\user_data\\test\\datasets\\NEU-CLS\\train\\Pa\\Pa_268.jpg"
        string_val: "E:\\PythonProject\\System\\system\\user_data\\test\\datasets\\NEU-CLS\\train\\Sc\\Sc_44.jpg"
        string_val: "E:\\PythonProject\\System\\system\\user_data\\test\\datasets\\NEU-CLS\\train\\PS\\PS_36.jpg"
        string_val: "E:\\PythonProject\\System\\system\\user_data\\test\\datasets\\NEU-CLS\\train\\Sc\\Sc_72.jpg"
        string_val: "E:\\PythonProject\\System\\system\\user_data\\test\\datasets\\NEU-CLS\\train\\In\\In_129.jpg"
        string_val: "E:\\PythonProject\\System\\system\\user_data\\test\\datasets\\NEU-CLS\\train\\Sc\\Sc_45.jpg"
        string_val: "E:\\PythonProject\\System\\system\\user_data\\test\\datasets\\NEU-CLS\\train\\Sc\\Sc_138.jpg"
        string_val: "E:\\PythonProject\\System\\system\\user_data\\test\\datasets\\NEU-CLS\\train\\Pa\\Pa_244.jpg"
        string_val: "E:\\PythonProject\\System\\system\\user_data\\test\\datasets\\NEU-CLS\\train\\Cr\\Cr_142.jpg"
        string_val: "E:\\PythonProject\\System\\system\\user_data\\test\\datasets\\NEU-CLS\\train\\Sc\\Sc_286.jpg"
        string_val: "E:\\PythonProject\\System\\system\\user_data\\test\\datasets\\NEU-CLS\\train\\Pa\\Pa_265.jpg"
        string_val: "E:\\PythonProject\\System\\system\\user_data\\test\\datasets\\NEU-CLS\\train\\Sc\\Sc_211.jpg"
        string_val: "E:\\PythonProject\\System\\system\\user_data\\test\\datasets\\NEU-CLS\\train\\RS\\RS_30.jpg"
        string_val: "E:\\PythonProject\\System\\system\\user_data\\test\\datasets\\NEU-CLS\\train\\Pa\\Pa_66.jpg"
        string_val: "E:\\PythonProject\\System\\system\\user_data\\test\\datasets\\NEU-CLS\\train\\Sc\\Sc_48.jpg"
        string_val: "E:\\PythonProject\\System\\system\\user_data\\test\\datasets\\NEU-CLS\\train\\Pa\\Pa_6.jpg"
        string_val: "E:\\PythonProject\\System\\system\\user_data\\test\\datasets\\NEU-CLS\\train\\Pa\\Pa_95.jpg"
        string_val: "E:\\PythonProject\\System\\system\\user_data\\test\\datasets\\NEU-CLS\\train\\Pa\\Pa_146.jpg"
        string_val: "E:\\PythonProject\\System\\system\\user_data\\test\\datasets\\NEU-CLS\\train\\Pa\\Pa_300.jpg"
        string_val: "E:\\PythonProject\\System\\system\\user_data\\test\\datasets\\NEU-CLS\\train\\PS\\PS_67.jpg"
        string_val: "E:\\PythonProject\\System\\system\\user_data\\test\\datasets\\NEU-CLS\\train\\RS\\RS_275.jpg"
        string_val: "E:\\PythonProject\\System\\system\\user_data\\test\\datasets\\NEU-CLS\\train\\RS\\RS_126.jpg"
        string_val: "E:\\PythonProject\\System\\system\\user_data\\test\\datasets\\NEU-CLS\\train\\Pa\\Pa_260.jpg"
        string_val: "E:\\PythonProject\\System\\system\\user_data\\test\\datasets\\NEU-CLS\\train\\PS\\PS_49.jpg"
        string_val: "E:\\PythonProject\\System\\system\\user_data\\test\\datasets\\NEU-CLS\\train\\Sc\\Sc_134.jpg"
        string_val: "E:\\PythonProject\\System\\system\\user_data\\test\\datasets\\NEU-CLS\\train\\Pa\\Pa_226.jpg"
        string_val: "E:\\PythonProject\\System\\system\\user_data\\test\\datasets\\NEU-CLS\\train\\RS\\RS_128.jpg"
        string_val: "E:\\PythonProject\\System\\system\\user_data\\test\\datasets\\NEU-CLS\\train\\PS\\PS_84.jpg"
        string_val: "E:\\PythonProject\\System\\system\\user_data\\test\\datasets\\NEU-CLS\\train\\Pa\\Pa_157.jpg"
        string_val: "E:\\PythonProject\\System\\system\\user_data\\test\\datasets\\NEU-CLS\\train\\Sc\\Sc_76.jpg"
        string_val: "E:\\PythonProject\\System\\system\\user_data\\test\\datasets\\NEU-CLS\\train\\In\\In_298.jpg"
        string_val: "E:\\PythonProject\\System\\system\\user_data\\test\\datasets\\NEU-CLS\\train\\Sc\\Sc_66.jpg"
        string_val: "E:\\PythonProject\\System\\system\\user_data\\test\\datasets\\NEU-CLS\\train\\PS\\PS_222.jpg"
        string_val: "E:\\PythonProject\\System\\system\\user_data\\test\\datasets\\NEU-CLS\\train\\Sc\\Sc_151.jpg"
        string_val: "E:\\PythonProject\\System\\system\\user_data\\test\\datasets\\NEU-CLS\\train\\Pa\\Pa_80.jpg"
        string_val: "E:\\PythonProject\\System\\system\\user_data\\test\\datasets\\NEU-CLS\\train\\Sc\\Sc_297.jpg"
        string_val: "E:\\PythonProject\\System\\system\\user_data\\test\\datasets\\NEU-CLS\\train\\Cr\\Cr_159.jpg"
        string_val: "E:\\PythonProject\\System\\system\\user_data\\test\\datasets\\NEU-CLS\\train\\In\\In_147.jpg"
        string_val: "E:\\PythonProject\\System\\system\\user_data\\test\\datasets\\NEU-CLS\\train\\Pa\\Pa_154.jpg"
        string_val: "E:\\PythonProject\\System\\system\\user_data\\test\\datasets\\NEU-CLS\\train\\In\\In_29.jpg"
        string_val: "E:\\PythonProject\\System\\system\\user_data\\test\\datasets\\NEU-CLS\\train\\RS\\RS_112.jpg"
        string_val: "E:\\PythonProject\\System\\system\\user_data\\test\\datasets\\NEU-CLS\\train\\Sc\\Sc_283.jpg"
        string_val: "E:\\PythonProject\\System\\system\\user_data\\test\\datasets\\NEU-CLS\\train\\Pa\\Pa_288.jpg"
        string_val: "E:\\PythonProject\\System\\system\\user_data\\test\\datasets\\NEU-CLS\\train\\RS\\RS_19.jpg"
        string_val: "E:\\PythonProject\\System\\system\\user_data\\test\\datasets\\NEU-CLS\\train\\Cr\\Cr_202.jpg"
        string_val: "E:\\PythonProject\\System\\system\\user_data\\test\\datasets\\NEU-CLS\\train\\Pa\\Pa_108.jpg"
        string_val: "E:\\PythonProject\\System\\system\\user_data\\test\\datasets\\NEU-CLS\\train\\Pa\\Pa_77.jpg"
        string_val: "E:\\PythonProject\\System\\system\\user_data\\test\\datasets\\NEU-CLS\\train\\Cr\\Cr_87.jpg"
        string_val: "E:\\PythonProject\\System\\system\\user_data\\test\\datasets\\NEU-CLS\\train\\Pa\\Pa_130.jpg"
        string_val: "E:\\PythonProject\\System\\system\\user_data\\test\\datasets\\NEU-CLS\\train\\PS\\PS_75.jpg"
        string_val: "E:\\PythonProject\\System\\system\\user_data\\test\\datasets\\NEU-CLS\\train\\PS\\PS_192.jpg"
        string_val: "E:\\PythonProject\\System\\system\\user_data\\test\\datasets\\NEU-CLS\\train\\In\\In_248.jpg"
        string_val: "E:\\PythonProject\\System\\system\\user_data\\test\\datasets\\NEU-CLS\\train\\Pa\\Pa_211.jpg"
        string_val: "E:\\PythonProject\\System\\system\\user_data\\test\\datasets\\NEU-CLS\\train\\In\\In_45.jpg"
        string_val: "E:\\PythonProject\\System\\system\\user_data\\test\\datasets\\NEU-CLS\\train\\PS\\PS_199.jpg"
        string_val: "E:\\PythonProject\\System\\system\\user_data\\test\\datasets\\NEU-CLS\\train\\Cr\\Cr_218.jpg"
        string_val: "E:\\PythonProject\\System\\system\\user_data\\test\\datasets\\NEU-CLS\\train\\RS\\RS_66.jpg"
        string_val: "E:\\PythonProject\\System\\system\\user_data\\test\\datasets\\NEU-CLS\\train\\PS\\PS_294.jpg"
        string_val: "E:\\PythonProject\\System\\system\\user_data\\test\\datasets\\NEU-CLS\\train\\Pa\\Pa_83.jpg"
        string_val: "E:\\PythonProject\\System\\system\\user_data\\test\\datasets\\NEU-CLS\\train\\Pa\\Pa_139.jpg"
        string_val: "E:\\PythonProject\\System\\system\\user_data\\test\\datasets\\NEU-CLS\\train\\Sc\\Sc_206.jpg"
        string_val: "E:\\PythonProject\\System\\system\\user_data\\test\\datasets\\NEU-CLS\\train\\Pa\\Pa_247.jpg"
        string_val: "E:\\PythonProject\\System\\system\\user_data\\test\\datasets\\NEU-CLS\\train\\Cr\\Cr_96.jpg"
        string_val: "E:\\PythonProject\\System\\system\\user_data\\test\\datasets\\NEU-CLS\\train\\Sc\\Sc_298.jpg"
        string_val: "E:\\PythonProject\\System\\system\\user_data\\test\\datasets\\NEU-CLS\\train\\Cr\\Cr_157.jpg"
        string_val: "E:\\PythonProject\\System\\system\\user_data\\test\\datasets\\NEU-CLS\\train\\Sc\\Sc_43.jpg"
        string_val: "E:\\PythonProject\\System\\system\\user_data\\test\\datasets\\NEU-CLS\\train\\RS\\RS_250.jpg"
        string_val: "E:\\PythonProject\\System\\system\\user_data\\test\\datasets\\NEU-CLS\\train\\Pa\\Pa_78.jpg"
        string_val: "E:\\PythonProject\\System\\system\\user_data\\test\\datasets\\NEU-CLS\\train\\Cr\\Cr_119.jpg"
        string_val: "E:\\PythonProject\\System\\system\\user_data\\test\\datasets\\NEU-CLS\\train\\PS\\PS_249.jpg"
        string_val: "E:\\PythonProject\\System\\system\\user_data\\test\\datasets\\NEU-CLS\\train\\RS\\RS_192.jpg"
        string_val: "E:\\PythonProject\\System\\system\\user_data\\test\\datasets\\NEU-CLS\\train\\PS\\PS_150.jpg"
        string_val: "E:\\PythonProject\\System\\system\\user_data\\test\\datasets\\NEU-CLS\\train\\RS\\RS_37.jpg"
        string_val: "E:\\PythonProject\\System\\system\\user_data\\test\\datasets\\NEU-CLS\\train\\Sc\\Sc_114.jpg"
        string_val: "E:\\PythonProject\\System\\system\\user_data\\test\\datasets\\NEU-CLS\\train\\Sc\\Sc_103.jpg"
        string_val: "E:\\PythonProject\\System\\system\\user_data\\test\\datasets\\NEU-CLS\\train\\PS\\PS_57.jpg"
        string_val: "E:\\PythonProject\\System\\system\\user_data\\test\\datasets\\NEU-CLS\\train\\PS\\PS_218.jpg"
        string_val: "E:\\PythonProject\\System\\system\\user_data\\test\\datasets\\NEU-CLS\\train\\RS\\RS_261.jpg"
        string_val: "E:\\PythonProject\\System\\system\\user_data\\test\\datasets\\NEU-CLS\\train\\PS\\PS_143.jpg"
        string_val: "E:\\PythonProject\\System\\system\\user_data\\test\\datasets\\NEU-CLS\\train\\In\\In_156.jpg"
        string_val: "E:\\PythonProject\\System\\system\\user_data\\test\\datasets\\NEU-CLS\\train\\In\\In_166.jpg"
        string_val: "E:\\PythonProject\\System\\system\\user_data\\test\\datasets\\NEU-CLS\\train\\PS\\PS_275.jpg"
        string_val: "E:\\PythonProject\\System\\system\\user_data\\test\\datasets\\NEU-CLS\\train\\Sc\\Sc_89.jpg"
        string_val: "E:\\PythonProject\\System\\system\\user_data\\test\\datasets\\NEU-CLS\\train\\In\\In_194.jpg"
        string_val: "E:\\PythonProject\\System\\system\\user_data\\test\\datasets\\NEU-CLS\\train\\Sc\\Sc_249.jpg"
        string_val: "E:\\PythonProject\\System\\system\\user_data\\test\\datasets\\NEU-CLS\\train\\In\\In_64.jpg"
        string_val: "E:\\PythonProject\\System\\system\\user_data\\test\\datasets\\NEU-CLS\\train\\Cr\\Cr_64.jpg"
        string_val: "E:\\PythonProject\\System\\system\\user_data\\test\\datasets\\NEU-CLS\\train\\RS\\RS_230.jpg"
        string_val: "E:\\PythonProject\\System\\system\\user_data\\test\\datasets\\NEU-CLS\\train\\PS\\PS_139.jpg"
        string_val: "E:\\PythonProject\\System\\system\\user_data\\test\\datasets\\NEU-CLS\\train\\Cr\\Cr_293.jpg"
        string_val: "E:\\PythonProject\\System\\system\\user_data\\test\\datasets\\NEU-CLS\\train\\PS\\PS_74.jpg"
        string_val: "E:\\PythonProject\\System\\system\\user_data\\test\\datasets\\NEU-CLS\\train\\In\\In_287.jpg"
        string_val: "E:\\PythonProject\\System\\system\\user_data\\test\\datasets\\NEU-CLS\\train\\Sc\\Sc_119.jpg"
        string_val: "E:\\PythonProject\\System\\system\\user_data\\test\\datasets\\NEU-CLS\\train\\PS\\PS_70.jpg"
        string_val: "E:\\PythonProject\\System\\system\\user_data\\test\\datasets\\NEU-CLS\\train\\RS\\RS_183.jpg"
        string_val: "E:\\PythonProject\\System\\system\\user_data\\test\\datasets\\NEU-CLS\\train\\RS\\RS_175.jpg"
        string_val: "E:\\PythonProject\\System\\system\\user_data\\test\\datasets\\NEU-CLS\\train\\Sc\\Sc_290.jpg"
        string_val: "E:\\PythonProject\\System\\system\\user_data\\test\\datasets\\NEU-CLS\\train\\RS\\RS_162.jpg"
        string_val: "E:\\PythonProject\\System\\system\\user_data\\test\\datasets\\NEU-CLS\\train\\PS\\PS_223.jpg"
        string_val: "E:\\PythonProject\\System\\system\\user_data\\test\\datasets\\NEU-CLS\\train\\Pa\\Pa_27.jpg"
        string_val: "E:\\PythonProject\\System\\system\\user_data\\test\\datasets\\NEU-CLS\\train\\PS\\PS_296.jpg"
        string_val: "E:\\PythonProject\\System\\system\\user_data\\test\\datasets\\NEU-CLS\\train\\Pa\\Pa_257.jpg"
        string_val: "E:\\PythonProject\\System\\system\\user_data\\test\\datasets\\NEU-CLS\\train\\RS\\RS_35.jpg"
        string_val: "E:\\PythonProject\\System\\system\\user_data\\test\\datasets\\NEU-CLS\\train\\PS\\PS_124.jpg"
        string_val: "E:\\PythonProject\\System\\system\\user_data\\test\\datasets\\NEU-CLS\\train\\Pa\\Pa_54.jpg"
        string_val: "E:\\PythonProject\\System\\system\\user_data\\test\\datasets\\NEU-CLS\\train\\Sc\\Sc_34.jpg"
        string_val: "E:\\PythonProject\\System\\system\\user_data\\test\\datasets\\NEU-CLS\\train\\RS\\RS_226.jpg"
        string_val: "E:\\PythonProject\\System\\system\\user_data\\test\\datasets\\NEU-CLS\\train\\In\\In_73.jpg"
        string_val: "E:\\PythonProject\\System\\system\\user_data\\test\\datasets\\NEU-CLS\\train\\PS\\PS_32.jpg"
        string_val: "E:\\PythonProject\\System\\system\\user_data\\test\\datasets\\NEU-CLS\\train\\PS\\PS_18.jpg"
        string_val: "E:\\PythonProject\\System\\system\\user_data\\test\\datasets\\NEU-CLS\\train\\Sc\\Sc_74.jpg"
        string_val: "E:\\PythonProject\\System\\system\\user_data\\test\\datasets\\NEU-CLS\\train\\Cr\\Cr_270.jpg"
        string_val: "E:\\PythonProject\\System\\system\\user_data\\test\\datasets\\NEU-CLS\\train\\Sc\\Sc_175.jpg"
        string_val: "E:\\PythonProject\\System\\system\\user_data\\test\\datasets\\NEU-CLS\\train\\PS\\PS_128.jpg"
        string_val: "E:\\PythonProject\\System\\system\\user_data\\test\\datasets\\NEU-CLS\\train\\RS\\RS_121.jpg"
        string_val: "E:\\PythonProject\\System\\system\\user_data\\test\\datasets\\NEU-CLS\\train\\PS\\PS_246.jpg"
        string_val: "E:\\PythonProject\\System\\system\\user_data\\test\\datasets\\NEU-CLS\\train\\Cr\\Cr_91.jpg"
        string_val: "E:\\PythonProject\\System\\system\\user_data\\test\\datasets\\NEU-CLS\\train\\Cr\\Cr_165.jpg"
        string_val: "E:\\PythonProject\\System\\system\\user_data\\test\\datasets\\NEU-CLS\\train\\In\\In_11.jpg"
        string_val: "E:\\PythonProject\\System\\system\\user_data\\test\\datasets\\NEU-CLS\\train\\Sc\\Sc_165.jpg"
        string_val: "E:\\PythonProject\\System\\system\\user_data\\test\\datasets\\NEU-CLS\\train\\RS\\RS_47.jpg"
        string_val: "E:\\PythonProject\\System\\system\\user_data\\test\\datasets\\NEU-CLS\\train\\RS\\RS_121.jpg"
        string_val: "E:\\PythonProject\\System\\system\\user_data\\test\\datasets\\NEU-CLS\\train\\Pa\\Pa_299.jpg"
        string_val: "E:\\PythonProject\\System\\system\\user_data\\test\\datasets\\NEU-CLS\\train\\In\\In_241.jpg"
        string_val: "E:\\PythonProject\\System\\system\\user_data\\test\\datasets\\NEU-CLS\\train\\RS\\RS_163.jpg"
        string_val: "E:\\PythonProject\\System\\system\\user_data\\test\\datasets\\NEU-CLS\\train\\Cr\\Cr_36.jpg"
        string_val: "E:\\PythonProject\\System\\system\\user_data\\test\\datasets\\NEU-CLS\\train\\RS\\RS_173.jpg"
        string_val: "E:\\PythonProject\\System\\system\\user_data\\test\\datasets\\NEU-CLS\\train\\RS\\RS_68.jpg"
        string_val: "E:\\PythonProject\\System\\system\\user_data\\test\\datasets\\NEU-CLS\\train\\Pa\\Pa_60.jpg"
        string_val: "E:\\PythonProject\\System\\system\\user_data\\test\\datasets\\NEU-CLS\\train\\In\\In_186.jpg"
        string_val: "E:\\PythonProject\\System\\system\\user_data\\test\\datasets\\NEU-CLS\\train\\In\\In_114.jpg"
        string_val: "E:\\PythonProject\\System\\system\\user_data\\test\\datasets\\NEU-CLS\\train\\In\\In_223.jpg"
        string_val: "E:\\PythonProject\\System\\system\\user_data\\test\\datasets\\NEU-CLS\\train\\In\\In_263.jpg"
        string_val: "E:\\PythonProject\\System\\system\\user_data\\test\\datasets\\NEU-CLS\\train\\Sc\\Sc_90.jpg"
        string_val: "E:\\PythonProject\\System\\system\\user_data\\test\\datasets\\NEU-CLS\\train\\RS\\RS_278.jpg"
        string_val: "E:\\PythonProject\\System\\system\\user_data\\test\\datasets\\NEU-CLS\\train\\Cr\\Cr_264.jpg"
        string_val: "E:\\PythonProject\\System\\system\\user_data\\test\\datasets\\NEU-CLS\\train\\In\\In_115.jpg"
        string_val: "E:\\PythonProject\\System\\system\\user_data\\test\\datasets\\NEU-CLS\\train\\Pa\\Pa_227.jpg"
        string_val: "E:\\PythonProject\\System\\system\\user_data\\test\\datasets\\NEU-CLS\\train\\RS\\RS_205.jpg"
        string_val: "E:\\PythonProject\\System\\system\\user_data\\test\\datasets\\NEU-CLS\\train\\In\\In_258.jpg"
        string_val: "E:\\PythonProject\\System\\system\\user_data\\test\\datasets\\NEU-CLS\\train\\Sc\\Sc_35.jpg"
        string_val: "E:\\PythonProject\\System\\system\\user_data\\test\\datasets\\NEU-CLS\\train\\PS\\PS_9.jpg"
        string_val: "E:\\PythonProject\\System\\system\\user_data\\test\\datasets\\NEU-CLS\\train\\Sc\\Sc_63.jpg"
        string_val: "E:\\PythonProject\\System\\system\\user_data\\test\\datasets\\NEU-CLS\\train\\Cr\\Cr_88.jpg"
        string_val: "E:\\PythonProject\\System\\system\\user_data\\test\\datasets\\NEU-CLS\\train\\Pa\\Pa_228.jpg"
        string_val: "E:\\PythonProject\\System\\system\\user_data\\test\\datasets\\NEU-CLS\\train\\In\\In_73.jpg"
        string_val: "E:\\PythonProject\\System\\system\\user_data\\test\\datasets\\NEU-CLS\\train\\Cr\\Cr_206.jpg"
        string_val: "E:\\PythonProject\\System\\system\\user_data\\test\\datasets\\NEU-CLS\\train\\Pa\\Pa_264.jpg"
        string_val: "E:\\PythonProject\\System\\system\\user_data\\test\\datasets\\NEU-CLS\\train\\In\\In_289.jpg"
        string_val: "E:\\PythonProject\\System\\system\\user_data\\test\\datasets\\NEU-CLS\\train\\PS\\PS_132.jpg"
        string_val: "E:\\PythonProject\\System\\system\\user_data\\test\\datasets\\NEU-CLS\\train\\Cr\\Cr_101.jpg"
        string_val: "E:\\PythonProject\\System\\system\\user_data\\test\\datasets\\NEU-CLS\\train\\RS\\RS_256.jpg"
        string_val: "E:\\PythonProject\\System\\system\\user_data\\test\\datasets\\NEU-CLS\\train\\In\\In_26.jpg"
        string_val: "E:\\PythonProject\\System\\system\\user_data\\test\\datasets\\NEU-CLS\\train\\Sc\\Sc_181.jpg"
        string_val: "E:\\PythonProject\\System\\system\\user_data\\test\\datasets\\NEU-CLS\\train\\Cr\\Cr_121.jpg"
        string_val: "E:\\PythonProject\\System\\system\\user_data\\test\\datasets\\NEU-CLS\\train\\Pa\\Pa_215.jpg"
        string_val: "E:\\PythonProject\\System\\system\\user_data\\test\\datasets\\NEU-CLS\\train\\Pa\\Pa_153.jpg"
        string_val: "E:\\PythonProject\\System\\system\\user_data\\test\\datasets\\NEU-CLS\\train\\Cr\\Cr_1.jpg"
        string_val: "E:\\PythonProject\\System\\system\\user_data\\test\\datasets\\NEU-CLS\\train\\Sc\\Sc_94.jpg"
        string_val: "E:\\PythonProject\\System\\system\\user_data\\test\\datasets\\NEU-CLS\\train\\In\\In_168.jpg"
        string_val: "E:\\PythonProject\\System\\system\\user_data\\test\\datasets\\NEU-CLS\\train\\In\\In_78.jpg"
        string_val: "E:\\PythonProject\\System\\system\\user_data\\test\\datasets\\NEU-CLS\\train\\Sc\\Sc_39.jpg"
        string_val: "E:\\PythonProject\\System\\system\\user_data\\test\\datasets\\NEU-CLS\\train\\Pa\\Pa_230.jpg"
        string_val: "E:\\PythonProject\\System\\system\\user_data\\test\\datasets\\NEU-CLS\\train\\PS\\PS_68.jpg"
        string_val: "E:\\PythonProject\\System\\system\\user_data\\test\\datasets\\NEU-CLS\\train\\Cr\\Cr_15.jpg"
        string_val: "E:\\PythonProject\\System\\system\\user_data\\test\\datasets\\NEU-CLS\\train\\Pa\\Pa_261.jpg"
        string_val: "E:\\PythonProject\\System\\system\\user_data\\test\\datasets\\NEU-CLS\\train\\Cr\\Cr_115.jpg"
        string_val: "E:\\PythonProject\\System\\system\\user_data\\test\\datasets\\NEU-CLS\\train\\Sc\\Sc_228.jpg"
        string_val: "E:\\PythonProject\\System\\system\\user_data\\test\\datasets\\NEU-CLS\\train\\Pa\\Pa_180.jpg"
        string_val: "E:\\PythonProject\\System\\system\\user_data\\test\\datasets\\NEU-CLS\\train\\RS\\RS_254.jpg"
        string_val: "E:\\PythonProject\\System\\system\\user_data\\test\\datasets\\NEU-CLS\\train\\PS\\PS_6.jpg"
        string_val: "E:\\PythonProject\\System\\system\\user_data\\test\\datasets\\NEU-CLS\\train\\Sc\\Sc_185.jpg"
        string_val: "E:\\PythonProject\\System\\system\\user_data\\test\\datasets\\NEU-CLS\\train\\PS\\PS_248.jpg"
        string_val: "E:\\PythonProject\\System\\system\\user_data\\test\\datasets\\NEU-CLS\\train\\RS\\RS_164.jpg"
        string_val: "E:\\PythonProject\\System\\system\\user_data\\test\\datasets\\NEU-CLS\\train\\Cr\\Cr_237.jpg"
        string_val: "E:\\PythonProject\\System\\system\\user_data\\test\\datasets\\NEU-CLS\\train\\RS\\RS_34.jpg"
        string_val: "E:\\PythonProject\\System\\system\\user_data\\test\\datasets\\NEU-CLS\\train\\Sc\\Sc_124.jpg"
        string_val: "E:\\PythonProject\\System\\system\\user_data\\test\\datasets\\NEU-CLS\\train\\In\\In_293.jpg"
        string_val: "E:\\PythonProject\\System\\system\\user_data\\test\\datasets\\NEU-CLS\\train\\Cr\\Cr_174.jpg"
        string_val: "E:\\PythonProject\\System\\system\\user_data\\test\\datasets\\NEU-CLS\\train\\In\\In_70.jpg"
        string_val: "E:\\PythonProject\\System\\system\\user_data\\test\\datasets\\NEU-CLS\\train\\Sc\\Sc_63.jpg"
        string_val: "E:\\PythonProject\\System\\system\\user_data\\test\\datasets\\NEU-CLS\\train\\In\\In_99.jpg"
        string_val: "E:\\PythonProject\\System\\system\\user_data\\test\\datasets\\NEU-CLS\\train\\Sc\\Sc_204.jpg"
        string_val: "E:\\PythonProject\\System\\system\\user_data\\test\\datasets\\NEU-CLS\\train\\Sc\\Sc_201.jpg"
        string_val: "E:\\PythonProject\\System\\system\\user_data\\test\\datasets\\NEU-CLS\\train\\PS\\PS_67.jpg"
        string_val: "E:\\PythonProject\\System\\system\\user_data\\test\\datasets\\NEU-CLS\\train\\In\\In_220.jpg"
        string_val: "E:\\PythonProject\\System\\system\\user_data\\test\\datasets\\NEU-CLS\\train\\Cr\\Cr_235.jpg"
        string_val: "E:\\PythonProject\\System\\system\\user_data\\test\\datasets\\NEU-CLS\\train\\PS\\PS_22.jpg"
        string_val: "E:\\PythonProject\\System\\system\\user_data\\test\\datasets\\NEU-CLS\\train\\In\\In_94.jpg"
        string_val: "E:\\PythonProject\\System\\system\\user_data\\test\\datasets\\NEU-CLS\\train\\Cr\\Cr_162.jpg"
        string_val: "E:\\PythonProject\\System\\system\\user_data\\test\\datasets\\NEU-CLS\\train\\PS\\PS_119.jpg"
        string_val: "E:\\PythonProject\\System\\system\\user_data\\test\\datasets\\NEU-CLS\\train\\PS\\PS_94.jpg"
        string_val: "E:\\PythonProject\\System\\system\\user_data\\test\\datasets\\NEU-CLS\\train\\Cr\\Cr_225.jpg"
        string_val: "E:\\PythonProject\\System\\system\\user_data\\test\\datasets\\NEU-CLS\\train\\RS\\RS_269.jpg"
        string_val: "E:\\PythonProject\\System\\system\\user_data\\test\\datasets\\NEU-CLS\\train\\Pa\\Pa_116.jpg"
        string_val: "E:\\PythonProject\\System\\system\\user_data\\test\\datasets\\NEU-CLS\\train\\In\\In_121.jpg"
        string_val: "E:\\PythonProject\\System\\system\\user_data\\test\\datasets\\NEU-CLS\\train\\Cr\\Cr_118.jpg"
        string_val: "E:\\PythonProject\\System\\system\\user_data\\test\\datasets\\NEU-CLS\\train\\RS\\RS_224.jpg"
        string_val: "E:\\PythonProject\\System\\system\\user_data\\test\\datasets\\NEU-CLS\\train\\PS\\PS_79.jpg"
        string_val: "E:\\PythonProject\\System\\system\\user_data\\test\\datasets\\NEU-CLS\\train\\Cr\\Cr_19.jpg"
        string_val: "E:\\PythonProject\\System\\system\\user_data\\test\\datasets\\NEU-CLS\\train\\Pa\\Pa_132.jpg"
        string_val: "E:\\PythonProject\\System\\system\\user_data\\test\\datasets\\NEU-CLS\\train\\Pa\\Pa_152.jpg"
        string_val: "E:\\PythonProject\\System\\system\\user_data\\test\\datasets\\NEU-CLS\\train\\Sc\\Sc_265.jpg"
        string_val: "E:\\PythonProject\\System\\system\\user_data\\test\\datasets\\NEU-CLS\\train\\Sc\\Sc_126.jpg"
        string_val: "E:\\PythonProject\\System\\system\\user_data\\test\\datasets\\NEU-CLS\\train\\Pa\\Pa_51.jpg"
        string_val: "E:\\PythonProject\\System\\system\\user_data\\test\\datasets\\NEU-CLS\\train\\PS\\PS_71.jpg"
        string_val: "E:\\PythonProject\\System\\system\\user_data\\test\\datasets\\NEU-CLS\\train\\Pa\\Pa_293.jpg"
        string_val: "E:\\PythonProject\\System\\system\\user_data\\test\\datasets\\NEU-CLS\\train\\PS\\PS_163.jpg"
        string_val: "E:\\PythonProject\\System\\system\\user_data\\test\\datasets\\NEU-CLS\\train\\PS\\PS_234.jpg"
        string_val: "E:\\PythonProject\\System\\system\\user_data\\test\\datasets\\NEU-CLS\\train\\Sc\\Sc_288.jpg"
        string_val: "E:\\PythonProject\\System\\system\\user_data\\test\\datasets\\NEU-CLS\\train\\Cr\\Cr_246.jpg"
        string_val: "E:\\PythonProject\\System\\system\\user_data\\test\\datasets\\NEU-CLS\\train\\Pa\\Pa_32.jpg"
        string_val: "E:\\PythonProject\\System\\system\\user_data\\test\\datasets\\NEU-CLS\\train\\Pa\\Pa_284.jpg"
        string_val: "E:\\PythonProject\\System\\system\\user_data\\test\\datasets\\NEU-CLS\\train\\RS\\RS_185.jpg"
        string_val: "E:\\PythonProject\\System\\system\\user_data\\test\\datasets\\NEU-CLS\\train\\In\\In_261.jpg"
        string_val: "E:\\PythonProject\\System\\system\\user_data\\test\\datasets\\NEU-CLS\\train\\RS\\RS_154.jpg"
        string_val: "E:\\PythonProject\\System\\system\\user_data\\test\\datasets\\NEU-CLS\\train\\Cr\\Cr_140.jpg"
        string_val: "E:\\PythonProject\\System\\system\\user_data\\test\\datasets\\NEU-CLS\\train\\Sc\\Sc_131.jpg"
        string_val: "E:\\PythonProject\\System\\system\\user_data\\test\\datasets\\NEU-CLS\\train\\Pa\\Pa_94.jpg"
        string_val: "E:\\PythonProject\\System\\system\\user_data\\test\\datasets\\NEU-CLS\\train\\In\\In_154.jpg"
        string_val: "E:\\PythonProject\\System\\system\\user_data\\test\\datasets\\NEU-CLS\\train\\Cr\\Cr_83.jpg"
        string_val: "E:\\PythonProject\\System\\system\\user_data\\test\\datasets\\NEU-CLS\\train\\PS\\PS_221.jpg"
        string_val: "E:\\PythonProject\\System\\system\\user_data\\test\\datasets\\NEU-CLS\\train\\Pa\\Pa_75.jpg"
        string_val: "E:\\PythonProject\\System\\system\\user_data\\test\\datasets\\NEU-CLS\\train\\In\\In_120.jpg"
        string_val: "E:\\PythonProject\\System\\system\\user_data\\test\\datasets\\NEU-CLS\\train\\RS\\RS_280.jpg"
        string_val: "E:\\PythonProject\\System\\system\\user_data\\test\\datasets\\NEU-CLS\\train\\Cr\\Cr_199.jpg"
        string_val: "E:\\PythonProject\\System\\system\\user_data\\test\\datasets\\NEU-CLS\\train\\Cr\\Cr_185.jpg"
        string_val: "E:\\PythonProject\\System\\system\\user_data\\test\\datasets\\NEU-CLS\\train\\PS\\PS_218.jpg"
        string_val: "E:\\PythonProject\\System\\system\\user_data\\test\\datasets\\NEU-CLS\\train\\In\\In_255.jpg"
        string_val: "E:\\PythonProject\\System\\system\\user_data\\test\\datasets\\NEU-CLS\\train\\Pa\\Pa_251.jpg"
        string_val: "E:\\PythonProject\\System\\system\\user_data\\test\\datasets\\NEU-CLS\\train\\PS\\PS_274.jpg"
        string_val: "E:\\PythonProject\\System\\system\\user_data\\test\\datasets\\NEU-CLS\\train\\Pa\\Pa_203.jpg"
        string_val: "E:\\PythonProject\\System\\system\\user_data\\test\\datasets\\NEU-CLS\\train\\Cr\\Cr_166.jpg"
        string_val: "E:\\PythonProject\\System\\system\\user_data\\test\\datasets\\NEU-CLS\\train\\Cr\\Cr_76.jpg"
        string_val: "E:\\PythonProject\\System\\system\\user_data\\test\\datasets\\NEU-CLS\\train\\In\\In_207.jpg"
        string_val: "E:\\PythonProject\\System\\system\\user_data\\test\\datasets\\NEU-CLS\\train\\Cr\\Cr_238.jpg"
        string_val: "E:\\PythonProject\\System\\system\\user_data\\test\\datasets\\NEU-CLS\\train\\RS\\RS_46.jpg"
        string_val: "E:\\PythonProject\\System\\system\\user_data\\test\\datasets\\NEU-CLS\\train\\Sc\\Sc_82.jpg"
        string_val: "E:\\PythonProject\\System\\system\\user_data\\test\\datasets\\NEU-CLS\\train\\PS\\PS_108.jpg"
        string_val: "E:\\PythonProject\\System\\system\\user_data\\test\\datasets\\NEU-CLS\\train\\In\\In_227.jpg"
        string_val: "E:\\PythonProject\\System\\system\\user_data\\test\\datasets\\NEU-CLS\\train\\In\\In_291.jpg"
        string_val: "E:\\PythonProject\\System\\system\\user_data\\test\\datasets\\NEU-CLS\\train\\In\\In_201.jpg"
        string_val: "E:\\PythonProject\\System\\system\\user_data\\test\\datasets\\NEU-CLS\\train\\Sc\\Sc_78.jpg"
        string_val: "E:\\PythonProject\\System\\system\\user_data\\test\\datasets\\NEU-CLS\\train\\Cr\\Cr_62.jpg"
        string_val: "E:\\PythonProject\\System\\system\\user_data\\test\\datasets\\NEU-CLS\\train\\PS\\PS_250.jpg"
        string_val: "E:\\PythonProject\\System\\system\\user_data\\test\\datasets\\NEU-CLS\\train\\PS\\PS_119.jpg"
        string_val: "E:\\PythonProject\\System\\system\\user_data\\test\\datasets\\NEU-CLS\\train\\Sc\\Sc_243.jpg"
        string_val: "E:\\PythonProject\\System\\system\\user_data\\test\\datasets\\NEU-CLS\\train\\In\\In_219.jpg"
        string_val: "E:\\PythonProject\\System\\system\\user_data\\test\\datasets\\NEU-CLS\\train\\In\\In_143.jpg"
        string_val: "E:\\PythonProject\\System\\system\\user_data\\test\\datasets\\NEU-CLS\\train\\Cr\\Cr_219.jpg"
        string_val: "E:\\PythonProject\\System\\system\\user_data\\test\\datasets\\NEU-CLS\\train\\Cr\\Cr_272.jpg"
        string_val: "E:\\PythonProject\\System\\system\\user_data\\test\\datasets\\NEU-CLS\\train\\In\\In_110.jpg"
        string_val: "E:\\PythonProject\\System\\system\\user_data\\test\\datasets\\NEU-CLS\\train\\RS\\RS_77.jpg"
        string_val: "E:\\PythonProject\\System\\system\\user_data\\test\\datasets\\NEU-CLS\\train\\In\\In_50.jpg"
        string_val: "E:\\PythonProject\\System\\system\\user_data\\test\\datasets\\NEU-CLS\\train\\Pa\\Pa_270.jpg"
        string_val: "E:\\PythonProject\\System\\system\\user_data\\test\\datasets\\NEU-CLS\\train\\Cr\\Cr_281.jpg"
        string_val: "E:\\PythonProject\\System\\system\\user_data\\test\\datasets\\NEU-CLS\\train\\RS\\RS_257.jpg"
        string_val: "E:\\PythonProject\\System\\system\\user_data\\test\\datasets\\NEU-CLS\\train\\Cr\\Cr_220.jpg"
        string_val: "E:\\PythonProject\\System\\system\\user_data\\test\\datasets\\NEU-CLS\\train\\Sc\\Sc_15.jpg"
        string_val: "E:\\PythonProject\\System\\system\\user_data\\test\\datasets\\NEU-CLS\\train\\RS\\RS_269.jpg"
        string_val: "E:\\PythonProject\\System\\system\\user_data\\test\\datasets\\NEU-CLS\\train\\Pa\\Pa_137.jpg"
        string_val: "E:\\PythonProject\\System\\system\\user_data\\test\\datasets\\NEU-CLS\\train\\RS\\RS_145.jpg"
        string_val: "E:\\PythonProject\\System\\system\\user_data\\test\\datasets\\NEU-CLS\\train\\Cr\\Cr_108.jpg"
        string_val: "E:\\PythonProject\\System\\system\\user_data\\test\\datasets\\NEU-CLS\\train\\Pa\\Pa_133.jpg"
        string_val: "E:\\PythonProject\\System\\system\\user_data\\test\\datasets\\NEU-CLS\\train\\In\\In_142.jpg"
        string_val: "E:\\PythonProject\\System\\system\\user_data\\test\\datasets\\NEU-CLS\\train\\PS\\PS_52.jpg"
        string_val: "E:\\PythonProject\\System\\system\\user_data\\test\\datasets\\NEU-CLS\\train\\In\\In_137.jpg"
        string_val: "E:\\PythonProject\\System\\system\\user_data\\test\\datasets\\NEU-CLS\\train\\In\\In_231.jpg"
        string_val: "E:\\PythonProject\\System\\system\\user_data\\test\\datasets\\NEU-CLS\\train\\RS\\RS_239.jpg"
        string_val: "E:\\PythonProject\\System\\system\\user_data\\test\\datasets\\NEU-CLS\\train\\Sc\\Sc_168.jpg"
        string_val: "E:\\PythonProject\\System\\system\\user_data\\test\\datasets\\NEU-CLS\\train\\PS\\PS_257.jpg"
        string_val: "E:\\PythonProject\\System\\system\\user_data\\test\\datasets\\NEU-CLS\\train\\Sc\\Sc_98.jpg"
        string_val: "E:\\PythonProject\\System\\system\\user_data\\test\\datasets\\NEU-CLS\\train\\PS\\PS_48.jpg"
        string_val: "E:\\PythonProject\\System\\system\\user_data\\test\\datasets\\NEU-CLS\\train\\In\\In_71.jpg"
        string_val: "E:\\PythonProject\\System\\system\\user_data\\test\\datasets\\NEU-CLS\\train\\Cr\\Cr_245.jpg"
        string_val: "E:\\PythonProject\\System\\system\\user_data\\test\\datasets\\NEU-CLS\\train\\Pa\\Pa_216.jpg"
        string_val: "E:\\PythonProject\\System\\system\\user_data\\test\\datasets\\NEU-CLS\\train\\Cr\\Cr_135.jpg"
        string_val: "E:\\PythonProject\\System\\system\\user_data\\test\\datasets\\NEU-CLS\\train\\Cr\\Cr_5.jpg"
        string_val: "E:\\PythonProject\\System\\system\\user_data\\test\\datasets\\NEU-CLS\\train\\PS\\PS_300.jpg"
        string_val: "E:\\PythonProject\\System\\system\\user_data\\test\\datasets\\NEU-CLS\\train\\RS\\RS_287.jpg"
        string_val: "E:\\PythonProject\\System\\system\\user_data\\test\\datasets\\NEU-CLS\\train\\Cr\\Cr_262.jpg"
        string_val: "E:\\PythonProject\\System\\system\\user_data\\test\\datasets\\NEU-CLS\\train\\Pa\\Pa_255.jpg"
        string_val: "E:\\PythonProject\\System\\system\\user_data\\test\\datasets\\NEU-CLS\\train\\Cr\\Cr_149.jpg"
        string_val: "E:\\PythonProject\\System\\system\\user_data\\test\\datasets\\NEU-CLS\\train\\In\\In_276.jpg"
        string_val: "E:\\PythonProject\\System\\system\\user_data\\test\\datasets\\NEU-CLS\\train\\Cr\\Cr_264.jpg"
        string_val: "E:\\PythonProject\\System\\system\\user_data\\test\\datasets\\NEU-CLS\\train\\PS\\PS_77.jpg"
        string_val: "E:\\PythonProject\\System\\system\\user_data\\test\\datasets\\NEU-CLS\\train\\Cr\\Cr_227.jpg"
        string_val: "E:\\PythonProject\\System\\system\\user_data\\test\\datasets\\NEU-CLS\\train\\In\\In_132.jpg"
        string_val: "E:\\PythonProject\\System\\system\\user_data\\test\\datasets\\NEU-CLS\\train\\Pa\\Pa_284.jpg"
        string_val: "E:\\PythonProject\\System\\system\\user_data\\test\\datasets\\NEU-CLS\\train\\In\\In_174.jpg"
        string_val: "E:\\PythonProject\\System\\system\\user_data\\test\\datasets\\NEU-CLS\\train\\Pa\\Pa_62.jpg"
        string_val: "E:\\PythonProject\\System\\system\\user_data\\test\\datasets\\NEU-CLS\\train\\PS\\PS_93.jpg"
        string_val: "E:\\PythonProject\\System\\system\\user_data\\test\\datasets\\NEU-CLS\\train\\RS\\RS_234.jpg"
        string_val: "E:\\PythonProject\\System\\system\\user_data\\test\\datasets\\NEU-CLS\\train\\RS\\RS_146.jpg"
        string_val: "E:\\PythonProject\\System\\system\\user_data\\test\\datasets\\NEU-CLS\\train\\Cr\\Cr_125.jpg"
        string_val: "E:\\PythonProject\\System\\system\\user_data\\test\\datasets\\NEU-CLS\\train\\RS\\RS_18.jpg"
        string_val: "E:\\PythonProject\\System\\system\\user_data\\test\\datasets\\NEU-CLS\\train\\RS\\RS_207.jpg"
        string_val: "E:\\PythonProject\\System\\system\\user_data\\test\\datasets\\NEU-CLS\\train\\RS\\RS_39.jpg"
        string_val: "E:\\PythonProject\\System\\system\\user_data\\test\\datasets\\NEU-CLS\\train\\Cr\\Cr_184.jpg"
        string_val: "E:\\PythonProject\\System\\system\\user_data\\test\\datasets\\NEU-CLS\\train\\PS\\PS_62.jpg"
        string_val: "E:\\PythonProject\\System\\system\\user_data\\test\\datasets\\NEU-CLS\\train\\Cr\\Cr_215.jpg"
        string_val: "E:\\PythonProject\\System\\system\\user_data\\test\\datasets\\NEU-CLS\\train\\PS\\PS_248.jpg"
        string_val: "E:\\PythonProject\\System\\system\\user_data\\test\\datasets\\NEU-CLS\\train\\RS\\RS_189.jpg"
        string_val: "E:\\PythonProject\\System\\system\\user_data\\test\\datasets\\NEU-CLS\\train\\PS\\PS_77.jpg"
        string_val: "E:\\PythonProject\\System\\system\\user_data\\test\\datasets\\NEU-CLS\\train\\Pa\\Pa_193.jpg"
        string_val: "E:\\PythonProject\\System\\system\\user_data\\test\\datasets\\NEU-CLS\\train\\Pa\\Pa_69.jpg"
        string_val: "E:\\PythonProject\\System\\system\\user_data\\test\\datasets\\NEU-CLS\\train\\RS\\RS_182.jpg"
        string_val: "E:\\PythonProject\\System\\system\\user_data\\test\\datasets\\NEU-CLS\\train\\RS\\RS_221.jpg"
        string_val: "E:\\PythonProject\\System\\system\\user_data\\test\\datasets\\NEU-CLS\\train\\Cr\\Cr_79.jpg"
        string_val: "E:\\PythonProject\\System\\system\\user_data\\test\\datasets\\NEU-CLS\\train\\Cr\\Cr_296.jpg"
        string_val: "E:\\PythonProject\\System\\system\\user_data\\test\\datasets\\NEU-CLS\\train\\PS\\PS_241.jpg"
        string_val: "E:\\PythonProject\\System\\system\\user_data\\test\\datasets\\NEU-CLS\\train\\Cr\\Cr_233.jpg"
        string_val: "E:\\PythonProject\\System\\system\\user_data\\test\\datasets\\NEU-CLS\\train\\Pa\\Pa_93.jpg"
        string_val: "E:\\PythonProject\\System\\system\\user_data\\test\\datasets\\NEU-CLS\\train\\In\\In_125.jpg"
        string_val: "E:\\PythonProject\\System\\system\\user_data\\test\\datasets\\NEU-CLS\\train\\PS\\PS_209.jpg"
        string_val: "E:\\PythonProject\\System\\system\\user_data\\test\\datasets\\NEU-CLS\\train\\Sc\\Sc_135.jpg"
        string_val: "E:\\PythonProject\\System\\system\\user_data\\test\\datasets\\NEU-CLS\\train\\Sc\\Sc_300.jpg"
        string_val: "E:\\PythonProject\\System\\system\\user_data\\test\\datasets\\NEU-CLS\\train\\RS\\RS_292.jpg"
        string_val: "E:\\PythonProject\\System\\system\\user_data\\test\\datasets\\NEU-CLS\\train\\Sc\\Sc_102.jpg"
        string_val: "E:\\PythonProject\\System\\system\\user_data\\test\\datasets\\NEU-CLS\\train\\Sc\\Sc_109.jpg"
        string_val: "E:\\PythonProject\\System\\system\\user_data\\test\\datasets\\NEU-CLS\\train\\RS\\RS_133.jpg"
        string_val: "E:\\PythonProject\\System\\system\\user_data\\test\\datasets\\NEU-CLS\\train\\In\\In_228.jpg"
        string_val: "E:\\PythonProject\\System\\system\\user_data\\test\\datasets\\NEU-CLS\\train\\RS\\RS_296.jpg"
        string_val: "E:\\PythonProject\\System\\system\\user_data\\test\\datasets\\NEU-CLS\\train\\Cr\\Cr_287.jpg"
        string_val: "E:\\PythonProject\\System\\system\\user_data\\test\\datasets\\NEU-CLS\\train\\RS\\RS_58.jpg"
        string_val: "E:\\PythonProject\\System\\system\\user_data\\test\\datasets\\NEU-CLS\\train\\In\\In_43.jpg"
        string_val: "E:\\PythonProject\\System\\system\\user_data\\test\\datasets\\NEU-CLS\\train\\Cr\\Cr_99.jpg"
        string_val: "E:\\PythonProject\\System\\system\\user_data\\test\\datasets\\NEU-CLS\\train\\Sc\\Sc_119.jpg"
        string_val: "E:\\PythonProject\\System\\system\\user_data\\test\\datasets\\NEU-CLS\\train\\In\\In_192.jpg"
        string_val: "E:\\PythonProject\\System\\system\\user_data\\test\\datasets\\NEU-CLS\\train\\Pa\\Pa_237.jpg"
        string_val: "E:\\PythonProject\\System\\system\\user_data\\test\\datasets\\NEU-CLS\\train\\In\\In_162.jpg"
        string_val: "E:\\PythonProject\\System\\system\\user_data\\test\\datasets\\NEU-CLS\\train\\Cr\\Cr_199.jpg"
        string_val: "E:\\PythonProject\\System\\system\\user_data\\test\\datasets\\NEU-CLS\\train\\Sc\\Sc_269.jpg"
        string_val: "E:\\PythonProject\\System\\system\\user_data\\test\\datasets\\NEU-CLS\\train\\Pa\\Pa_20.jpg"
        string_val: "E:\\PythonProject\\System\\system\\user_data\\test\\datasets\\NEU-CLS\\train\\Pa\\Pa_180.jpg"
        string_val: "E:\\PythonProject\\System\\system\\user_data\\test\\datasets\\NEU-CLS\\train\\PS\\PS_23.jpg"
        string_val: "E:\\PythonProject\\System\\system\\user_data\\test\\datasets\\NEU-CLS\\train\\PS\\PS_227.jpg"
        string_val: "E:\\PythonProject\\System\\system\\user_data\\test\\datasets\\NEU-CLS\\train\\Cr\\Cr_175.jpg"
        string_val: "E:\\PythonProject\\System\\system\\user_data\\test\\datasets\\NEU-CLS\\train\\Pa\\Pa_23.jpg"
        string_val: "E:\\PythonProject\\System\\system\\user_data\\test\\datasets\\NEU-CLS\\train\\PS\\PS_38.jpg"
        string_val: "E:\\PythonProject\\System\\system\\user_data\\test\\datasets\\NEU-CLS\\train\\Cr\\Cr_6.jpg"
        string_val: "E:\\PythonProject\\System\\system\\user_data\\test\\datasets\\NEU-CLS\\train\\RS\\RS_135.jpg"
        string_val: "E:\\PythonProject\\System\\system\\user_data\\test\\datasets\\NEU-CLS\\train\\Sc\\Sc_172.jpg"
        string_val: "E:\\PythonProject\\System\\system\\user_data\\test\\datasets\\NEU-CLS\\train\\Sc\\Sc_143.jpg"
        string_val: "E:\\PythonProject\\System\\system\\user_data\\test\\datasets\\NEU-CLS\\train\\Pa\\Pa_294.jpg"
        string_val: "E:\\PythonProject\\System\\system\\user_data\\test\\datasets\\NEU-CLS\\train\\In\\In_132.jpg"
        string_val: "E:\\PythonProject\\System\\system\\user_data\\test\\datasets\\NEU-CLS\\train\\Pa\\Pa_233.jpg"
        string_val: "E:\\PythonProject\\System\\system\\user_data\\test\\datasets\\NEU-CLS\\train\\PS\\PS_283.jpg"
        string_val: "E:\\PythonProject\\System\\system\\user_data\\test\\datasets\\NEU-CLS\\train\\RS\\RS_165.jpg"
        string_val: "E:\\PythonProject\\System\\system\\user_data\\test\\datasets\\NEU-CLS\\train\\Pa\\Pa_75.jpg"
        string_val: "E:\\PythonProject\\System\\system\\user_data\\test\\datasets\\NEU-CLS\\train\\PS\\PS_71.jpg"
        string_val: "E:\\PythonProject\\System\\system\\user_data\\test\\datasets\\NEU-CLS\\train\\In\\In_39.jpg"
        string_val: "E:\\PythonProject\\System\\system\\user_data\\test\\datasets\\NEU-CLS\\train\\RS\\RS_166.jpg"
        string_val: "E:\\PythonProject\\System\\system\\user_data\\test\\datasets\\NEU-CLS\\train\\PS\\PS_131.jpg"
        string_val: "E:\\PythonProject\\System\\system\\user_data\\test\\datasets\\NEU-CLS\\train\\Pa\\Pa_49.jpg"
        string_val: "E:\\PythonProject\\System\\system\\user_data\\test\\datasets\\NEU-CLS\\train\\Cr\\Cr_105.jpg"
        string_val: "E:\\PythonProject\\System\\system\\user_data\\test\\datasets\\NEU-CLS\\train\\RS\\RS_106.jpg"
        string_val: "E:\\PythonProject\\System\\system\\user_data\\test\\datasets\\NEU-CLS\\train\\Cr\\Cr_234.jpg"
        string_val: "E:\\PythonProject\\System\\system\\user_data\\test\\datasets\\NEU-CLS\\train\\Pa\\Pa_53.jpg"
        string_val: "E:\\PythonProject\\System\\system\\user_data\\test\\datasets\\NEU-CLS\\train\\Cr\\Cr_215.jpg"
        string_val: "E:\\PythonProject\\System\\system\\user_data\\test\\datasets\\NEU-CLS\\train\\Pa\\Pa_29.jpg"
        string_val: "E:\\PythonProject\\System\\system\\user_data\\test\\datasets\\NEU-CLS\\train\\In\\In_159.jpg"
        string_val: "E:\\PythonProject\\System\\system\\user_data\\test\\datasets\\NEU-CLS\\train\\PS\\PS_220.jpg"
        string_val: "E:\\PythonProject\\System\\system\\user_data\\test\\datasets\\NEU-CLS\\train\\PS\\PS_228.jpg"
        string_val: "E:\\PythonProject\\System\\system\\user_data\\test\\datasets\\NEU-CLS\\train\\Pa\\Pa_258.jpg"
        string_val: "E:\\PythonProject\\System\\system\\user_data\\test\\datasets\\NEU-CLS\\train\\Sc\\Sc_197.jpg"
        string_val: "E:\\PythonProject\\System\\system\\user_data\\test\\datasets\\NEU-CLS\\train\\Cr\\Cr_162.jpg"
        string_val: "E:\\PythonProject\\System\\system\\user_data\\test\\datasets\\NEU-CLS\\train\\RS\\RS_287.jpg"
        string_val: "E:\\PythonProject\\System\\system\\user_data\\test\\datasets\\NEU-CLS\\train\\Cr\\Cr_286.jpg"
        string_val: "E:\\PythonProject\\System\\system\\user_data\\test\\datasets\\NEU-CLS\\train\\Sc\\Sc_22.jpg"
        string_val: "E:\\PythonProject\\System\\system\\user_data\\test\\datasets\\NEU-CLS\\train\\Cr\\Cr_62.jpg"
        string_val: "E:\\PythonProject\\System\\system\\user_data\\test\\datasets\\NEU-CLS\\train\\Cr\\Cr_111.jpg"
        string_val: "E:\\PythonProject\\System\\system\\user_data\\test\\datasets\\NEU-CLS\\train\\Cr\\Cr_13.jpg"
        string_val: "E:\\PythonProject\\System\\system\\user_data\\test\\datasets\\NEU-CLS\\train\\Sc\\Sc_70.jpg"
        string_val: "E:\\PythonProject\\System\\system\\user_data\\test\\datasets\\NEU-CLS\\train\\RS\\RS_77.jpg"
        string_val: "E:\\PythonProject\\System\\system\\user_data\\test\\datasets\\NEU-CLS\\train\\Cr\\Cr_259.jpg"
        string_val: "E:\\PythonProject\\System\\system\\user_data\\test\\datasets\\NEU-CLS\\train\\Sc\\Sc_41.jpg"
        string_val: "E:\\PythonProject\\System\\system\\user_data\\test\\datasets\\NEU-CLS\\train\\In\\In_164.jpg"
        string_val: "E:\\PythonProject\\System\\system\\user_data\\test\\datasets\\NEU-CLS\\train\\Sc\\Sc_261.jpg"
        string_val: "E:\\PythonProject\\System\\system\\user_data\\test\\datasets\\NEU-CLS\\train\\Sc\\Sc_268.jpg"
        string_val: "E:\\PythonProject\\System\\system\\user_data\\test\\datasets\\NEU-CLS\\train\\PS\\PS_242.jpg"
        string_val: "E:\\PythonProject\\System\\system\\user_data\\test\\datasets\\NEU-CLS\\train\\Pa\\Pa_238.jpg"
        string_val: "E:\\PythonProject\\System\\system\\user_data\\test\\datasets\\NEU-CLS\\train\\Sc\\Sc_238.jpg"
        string_val: "E:\\PythonProject\\System\\system\\user_data\\test\\datasets\\NEU-CLS\\train\\Sc\\Sc_292.jpg"
        string_val: "E:\\PythonProject\\System\\system\\user_data\\test\\datasets\\NEU-CLS\\train\\Sc\\Sc_292.jpg"
        string_val: "E:\\PythonProject\\System\\system\\user_data\\test\\datasets\\NEU-CLS\\train\\In\\In_104.jpg"
        string_val: "E:\\PythonProject\\System\\system\\user_data\\test\\datasets\\NEU-CLS\\train\\Sc\\Sc_169.jpg"
        string_val: "E:\\PythonProject\\System\\system\\user_data\\test\\datasets\\NEU-CLS\\train\\Sc\\Sc_256.jpg"
        string_val: "E:\\PythonProject\\System\\system\\user_data\\test\\datasets\\NEU-CLS\\train\\In\\In_134.jpg"
        string_val: "E:\\PythonProject\\System\\system\\user_data\\test\\datasets\\NEU-CLS\\train\\Sc\\Sc_183.jpg"
        string_val: "E:\\PythonProject\\System\\system\\user_data\\test\\datasets\\NEU-CLS\\train\\Cr\\Cr_230.jpg"
        string_val: "E:\\PythonProject\\System\\system\\user_data\\test\\datasets\\NEU-CLS\\train\\RS\\RS_26.jpg"
        string_val: "E:\\PythonProject\\System\\system\\user_data\\test\\datasets\\NEU-CLS\\train\\Pa\\Pa_166.jpg"
        string_val: "E:\\PythonProject\\System\\system\\user_data\\test\\datasets\\NEU-CLS\\train\\Sc\\Sc_40.jpg"
        string_val: "E:\\PythonProject\\System\\system\\user_data\\test\\datasets\\NEU-CLS\\train\\RS\\RS_136.jpg"
        string_val: "E:\\PythonProject\\System\\system\\user_data\\test\\datasets\\NEU-CLS\\train\\Pa\\Pa_274.jpg"
        string_val: "E:\\PythonProject\\System\\system\\user_data\\test\\datasets\\NEU-CLS\\train\\Sc\\Sc_210.jpg"
        string_val: "E:\\PythonProject\\System\\system\\user_data\\test\\datasets\\NEU-CLS\\train\\Cr\\Cr_97.jpg"
        string_val: "E:\\PythonProject\\System\\system\\user_data\\test\\datasets\\NEU-CLS\\train\\Cr\\Cr_209.jpg"
        string_val: "E:\\PythonProject\\System\\system\\user_data\\test\\datasets\\NEU-CLS\\train\\In\\In_241.jpg"
        string_val: "E:\\PythonProject\\System\\system\\user_data\\test\\datasets\\NEU-CLS\\train\\PS\\PS_70.jpg"
        string_val: "E:\\PythonProject\\System\\system\\user_data\\test\\datasets\\NEU-CLS\\train\\RS\\RS_277.jpg"
        string_val: "E:\\PythonProject\\System\\system\\user_data\\test\\datasets\\NEU-CLS\\train\\RS\\RS_147.jpg"
        string_val: "E:\\PythonProject\\System\\system\\user_data\\test\\datasets\\NEU-CLS\\train\\In\\In_198.jpg"
        string_val: "E:\\PythonProject\\System\\system\\user_data\\test\\datasets\\NEU-CLS\\train\\RS\\RS_90.jpg"
        string_val: "E:\\PythonProject\\System\\system\\user_data\\test\\datasets\\NEU-CLS\\train\\Cr\\Cr_46.jpg"
        string_val: "E:\\PythonProject\\System\\system\\user_data\\test\\datasets\\NEU-CLS\\train\\In\\In_149.jpg"
        string_val: "E:\\PythonProject\\System\\system\\user_data\\test\\datasets\\NEU-CLS\\train\\RS\\RS_89.jpg"
        string_val: "E:\\PythonProject\\System\\system\\user_data\\test\\datasets\\NEU-CLS\\train\\Cr\\Cr_161.jpg"
        string_val: "E:\\PythonProject\\System\\system\\user_data\\test\\datasets\\NEU-CLS\\train\\Sc\\Sc_228.jpg"
        string_val: "E:\\PythonProject\\System\\system\\user_data\\test\\datasets\\NEU-CLS\\train\\RS\\RS_44.jpg"
        string_val: "E:\\PythonProject\\System\\system\\user_data\\test\\datasets\\NEU-CLS\\train\\Cr\\Cr_288.jpg"
        string_val: "E:\\PythonProject\\System\\system\\user_data\\test\\datasets\\NEU-CLS\\train\\In\\In_271.jpg"
        string_val: "E:\\PythonProject\\System\\system\\user_data\\test\\datasets\\NEU-CLS\\train\\Cr\\Cr_283.jpg"
        string_val: "E:\\PythonProject\\System\\system\\user_data\\test\\datasets\\NEU-CLS\\train\\RS\\RS_153.jpg"
        string_val: "E:\\PythonProject\\System\\system\\user_data\\test\\datasets\\NEU-CLS\\train\\RS\\RS_222.jpg"
        string_val: "E:\\PythonProject\\System\\system\\user_data\\test\\datasets\\NEU-CLS\\train\\Sc\\Sc_121.jpg"
        string_val: "E:\\PythonProject\\System\\system\\user_data\\test\\datasets\\NEU-CLS\\train\\Pa\\Pa_163.jpg"
        string_val: "E:\\PythonProject\\System\\system\\user_data\\test\\datasets\\NEU-CLS\\train\\Sc\\Sc_295.jpg"
        string_val: "E:\\PythonProject\\System\\system\\user_data\\test\\datasets\\NEU-CLS\\train\\In\\In_98.jpg"
        string_val: "E:\\PythonProject\\System\\system\\user_data\\test\\datasets\\NEU-CLS\\train\\Cr\\Cr_121.jpg"
        string_val: "E:\\PythonProject\\System\\system\\user_data\\test\\datasets\\NEU-CLS\\train\\Pa\\Pa_24.jpg"
        string_val: "E:\\PythonProject\\System\\system\\user_data\\test\\datasets\\NEU-CLS\\train\\Cr\\Cr_2.jpg"
        string_val: "E:\\PythonProject\\System\\system\\user_data\\test\\datasets\\NEU-CLS\\train\\PS\\PS_35.jpg"
        string_val: "E:\\PythonProject\\System\\system\\user_data\\test\\datasets\\NEU-CLS\\train\\PS\\PS_38.jpg"
        string_val: "E:\\PythonProject\\System\\system\\user_data\\test\\datasets\\NEU-CLS\\train\\Sc\\Sc_26.jpg"
        string_val: "E:\\PythonProject\\System\\system\\user_data\\test\\datasets\\NEU-CLS\\train\\Sc\\Sc_212.jpg"
        string_val: "E:\\PythonProject\\System\\system\\user_data\\test\\datasets\\NEU-CLS\\train\\PS\\PS_244.jpg"
        string_val: "E:\\PythonProject\\System\\system\\user_data\\test\\datasets\\NEU-CLS\\train\\PS\\PS_60.jpg"
        string_val: "E:\\PythonProject\\System\\system\\user_data\\test\\datasets\\NEU-CLS\\train\\RS\\RS_299.jpg"
        string_val: "E:\\PythonProject\\System\\system\\user_data\\test\\datasets\\NEU-CLS\\train\\Pa\\Pa_79.jpg"
        string_val: "E:\\PythonProject\\System\\system\\user_data\\test\\datasets\\NEU-CLS\\train\\Pa\\Pa_299.jpg"
        string_val: "E:\\PythonProject\\System\\system\\user_data\\test\\datasets\\NEU-CLS\\train\\RS\\RS_150.jpg"
        string_val: "E:\\PythonProject\\System\\system\\user_data\\test\\datasets\\NEU-CLS\\train\\Pa\\Pa_142.jpg"
        string_val: "E:\\PythonProject\\System\\system\\user_data\\test\\datasets\\NEU-CLS\\train\\RS\\RS_166.jpg"
        string_val: "E:\\PythonProject\\System\\system\\user_data\\test\\datasets\\NEU-CLS\\train\\Cr\\Cr_290.jpg"
        string_val: "E:\\PythonProject\\System\\system\\user_data\\test\\datasets\\NEU-CLS\\train\\Pa\\Pa_246.jpg"
        string_val: "E:\\PythonProject\\System\\system\\user_data\\test\\datasets\\NEU-CLS\\train\\Pa\\Pa_167.jpg"
        string_val: "E:\\PythonProject\\System\\system\\user_data\\test\\datasets\\NEU-CLS\\train\\Pa\\Pa_8.jpg"
        string_val: "E:\\PythonProject\\System\\system\\user_data\\test\\datasets\\NEU-CLS\\train\\PS\\PS_134.jpg"
        string_val: "E:\\PythonProject\\System\\system\\user_data\\test\\datasets\\NEU-CLS\\train\\PS\\PS_1.jpg"
        string_val: "E:\\PythonProject\\System\\system\\user_data\\test\\datasets\\NEU-CLS\\train\\Sc\\Sc_142.jpg"
        string_val: "E:\\PythonProject\\System\\system\\user_data\\test\\datasets\\NEU-CLS\\train\\In\\In_190.jpg"
        string_val: "E:\\PythonProject\\System\\system\\user_data\\test\\datasets\\NEU-CLS\\train\\Sc\\Sc_236.jpg"
        string_val: "E:\\PythonProject\\System\\system\\user_data\\test\\datasets\\NEU-CLS\\train\\Sc\\Sc_218.jpg"
        string_val: "E:\\PythonProject\\System\\system\\user_data\\test\\datasets\\NEU-CLS\\train\\PS\\PS_26.jpg"
        string_val: "E:\\PythonProject\\System\\system\\user_data\\test\\datasets\\NEU-CLS\\train\\Cr\\Cr_74.jpg"
        string_val: "E:\\PythonProject\\System\\system\\user_data\\test\\datasets\\NEU-CLS\\train\\Sc\\Sc_4.jpg"
        string_val: "E:\\PythonProject\\System\\system\\user_data\\test\\datasets\\NEU-CLS\\train\\PS\\PS_24.jpg"
        string_val: "E:\\PythonProject\\System\\system\\user_data\\test\\datasets\\NEU-CLS\\train\\RS\\RS_30.jpg"
        string_val: "E:\\PythonProject\\System\\system\\user_data\\test\\datasets\\NEU-CLS\\train\\In\\In_297.jpg"
        string_val: "E:\\PythonProject\\System\\system\\user_data\\test\\datasets\\NEU-CLS\\train\\PS\\PS_212.jpg"
        string_val: "E:\\PythonProject\\System\\system\\user_data\\test\\datasets\\NEU-CLS\\train\\RS\\RS_204.jpg"
        string_val: "E:\\PythonProject\\System\\system\\user_data\\test\\datasets\\NEU-CLS\\train\\Pa\\Pa_178.jpg"
        string_val: "E:\\PythonProject\\System\\system\\user_data\\test\\datasets\\NEU-CLS\\train\\RS\\RS_42.jpg"
        string_val: "E:\\PythonProject\\System\\system\\user_data\\test\\datasets\\NEU-CLS\\train\\Cr\\Cr_131.jpg"
        string_val: "E:\\PythonProject\\System\\system\\user_data\\test\\datasets\\NEU-CLS\\train\\In\\In_176.jpg"
        string_val: "E:\\PythonProject\\System\\system\\user_data\\test\\datasets\\NEU-CLS\\train\\PS\\PS_242.jpg"
        string_val: "E:\\PythonProject\\System\\system\\user_data\\test\\datasets\\NEU-CLS\\train\\Cr\\Cr_80.jpg"
        string_val: "E:\\PythonProject\\System\\system\\user_data\\test\\datasets\\NEU-CLS\\train\\In\\In_100.jpg"
        string_val: "E:\\PythonProject\\System\\system\\user_data\\test\\datasets\\NEU-CLS\\train\\Sc\\Sc_259.jpg"
        string_val: "E:\\PythonProject\\System\\system\\user_data\\test\\datasets\\NEU-CLS\\train\\PS\\PS_205.jpg"
        string_val: "E:\\PythonProject\\System\\system\\user_data\\test\\datasets\\NEU-CLS\\train\\Sc\\Sc_271.jpg"
        string_val: "E:\\PythonProject\\System\\system\\user_data\\test\\datasets\\NEU-CLS\\train\\Sc\\Sc_279.jpg"
        string_val: "E:\\PythonProject\\System\\system\\user_data\\test\\datasets\\NEU-CLS\\train\\Sc\\Sc_123.jpg"
        string_val: "E:\\PythonProject\\System\\system\\user_data\\test\\datasets\\NEU-CLS\\train\\RS\\RS_191.jpg"
        string_val: "E:\\PythonProject\\System\\system\\user_data\\test\\datasets\\NEU-CLS\\train\\Cr\\Cr_165.jpg"
        string_val: "E:\\PythonProject\\System\\system\\user_data\\test\\datasets\\NEU-CLS\\train\\Pa\\Pa_160.jpg"
        string_val: "E:\\PythonProject\\System\\system\\user_data\\test\\datasets\\NEU-CLS\\train\\RS\\RS_286.jpg"
        string_val: "E:\\PythonProject\\System\\system\\user_data\\test\\datasets\\NEU-CLS\\train\\PS\\PS_174.jpg"
        string_val: "E:\\PythonProject\\System\\system\\user_data\\test\\datasets\\NEU-CLS\\train\\PS\\PS_267.jpg"
        string_val: "E:\\PythonProject\\System\\system\\user_data\\test\\datasets\\NEU-CLS\\train\\Pa\\Pa_124.jpg"
        string_val: "E:\\PythonProject\\System\\system\\user_data\\test\\datasets\\NEU-CLS\\train\\In\\In_202.jpg"
        string_val: "E:\\PythonProject\\System\\system\\user_data\\test\\datasets\\NEU-CLS\\train\\Sc\\Sc_25.jpg"
        string_val: "E:\\PythonProject\\System\\system\\user_data\\test\\datasets\\NEU-CLS\\train\\Sc\\Sc_165.jpg"
        string_val: "E:\\PythonProject\\System\\system\\user_data\\test\\datasets\\NEU-CLS\\train\\Sc\\Sc_139.jpg"
        string_val: "E:\\PythonProject\\System\\system\\user_data\\test\\datasets\\NEU-CLS\\train\\Sc\\Sc_171.jpg"
        string_val: "E:\\PythonProject\\System\\system\\user_data\\test\\datasets\\NEU-CLS\\train\\Cr\\Cr_186.jpg"
        string_val: "E:\\PythonProject\\System\\system\\user_data\\test\\datasets\\NEU-CLS\\train\\Sc\\Sc_101.jpg"
        string_val: "E:\\PythonProject\\System\\system\\user_data\\test\\datasets\\NEU-CLS\\train\\Cr\\Cr_18.jpg"
        string_val: "E:\\PythonProject\\System\\system\\user_data\\test\\datasets\\NEU-CLS\\train\\RS\\RS_179.jpg"
        string_val: "E:\\PythonProject\\System\\system\\user_data\\test\\datasets\\NEU-CLS\\train\\RS\\RS_264.jpg"
        string_val: "E:\\PythonProject\\System\\system\\user_data\\test\\datasets\\NEU-CLS\\train\\RS\\RS_110.jpg"
        string_val: "E:\\PythonProject\\System\\system\\user_data\\test\\datasets\\NEU-CLS\\train\\PS\\PS_90.jpg"
        string_val: "E:\\PythonProject\\System\\system\\user_data\\test\\datasets\\NEU-CLS\\train\\In\\In_120.jpg"
        string_val: "E:\\PythonProject\\System\\system\\user_data\\test\\datasets\\NEU-CLS\\train\\PS\\PS_293.jpg"
        string_val: "E:\\PythonProject\\System\\system\\user_data\\test\\datasets\\NEU-CLS\\train\\RS\\RS_295.jpg"
        string_val: "E:\\PythonProject\\System\\system\\user_data\\test\\datasets\\NEU-CLS\\train\\Sc\\Sc_272.jpg"
        string_val: "E:\\PythonProject\\System\\system\\user_data\\test\\datasets\\NEU-CLS\\train\\RS\\RS_177.jpg"
        string_val: "E:\\PythonProject\\System\\system\\user_data\\test\\datasets\\NEU-CLS\\train\\In\\In_151.jpg"
        string_val: "E:\\PythonProject\\System\\system\\user_data\\test\\datasets\\NEU-CLS\\train\\Sc\\Sc_30.jpg"
        string_val: "E:\\PythonProject\\System\\system\\user_data\\test\\datasets\\NEU-CLS\\train\\Cr\\Cr_281.jpg"
        string_val: "E:\\PythonProject\\System\\system\\user_data\\test\\datasets\\NEU-CLS\\train\\Sc\\Sc_144.jpg"
        string_val: "E:\\PythonProject\\System\\system\\user_data\\test\\datasets\\NEU-CLS\\train\\PS\\PS_33.jpg"
        string_val: "E:\\PythonProject\\System\\system\\user_data\\test\\datasets\\NEU-CLS\\train\\Pa\\Pa_251.jpg"
        string_val: "E:\\PythonProject\\System\\system\\user_data\\test\\datasets\\NEU-CLS\\train\\RS\\RS_1.jpg"
        string_val: "E:\\PythonProject\\System\\system\\user_data\\test\\datasets\\NEU-CLS\\train\\In\\In_195.jpg"
        string_val: "E:\\PythonProject\\System\\system\\user_data\\test\\datasets\\NEU-CLS\\train\\PS\\PS_189.jpg"
        string_val: "E:\\PythonProject\\System\\system\\user_data\\test\\datasets\\NEU-CLS\\train\\In\\In_218.jpg"
        string_val: "E:\\PythonProject\\System\\system\\user_data\\test\\datasets\\NEU-CLS\\train\\Cr\\Cr_74.jpg"
        string_val: "E:\\PythonProject\\System\\system\\user_data\\test\\datasets\\NEU-CLS\\train\\PS\\PS_186.jpg"
        string_val: "E:\\PythonProject\\System\\system\\user_data\\test\\datasets\\NEU-CLS\\train\\RS\\RS_119.jpg"
        string_val: "E:\\PythonProject\\System\\system\\user_data\\test\\datasets\\NEU-CLS\\train\\In\\In_68.jpg"
        string_val: "E:\\PythonProject\\System\\system\\user_data\\test\\datasets\\NEU-CLS\\train\\Pa\\Pa_118.jpg"
        string_val: "E:\\PythonProject\\System\\system\\user_data\\test\\datasets\\NEU-CLS\\train\\PS\\PS_50.jpg"
        string_val: "E:\\PythonProject\\System\\system\\user_data\\test\\datasets\\NEU-CLS\\train\\Sc\\Sc_219.jpg"
        string_val: "E:\\PythonProject\\System\\system\\user_data\\test\\datasets\\NEU-CLS\\train\\In\\In_242.jpg"
        string_val: "E:\\PythonProject\\System\\system\\user_data\\test\\datasets\\NEU-CLS\\train\\Pa\\Pa_185.jpg"
        string_val: "E:\\PythonProject\\System\\system\\user_data\\test\\datasets\\NEU-CLS\\train\\Pa\\Pa_278.jpg"
        string_val: "E:\\PythonProject\\System\\system\\user_data\\test\\datasets\\NEU-CLS\\train\\In\\In_200.jpg"
        string_val: "E:\\PythonProject\\System\\system\\user_data\\test\\datasets\\NEU-CLS\\train\\PS\\PS_226.jpg"
        string_val: "E:\\PythonProject\\System\\system\\user_data\\test\\datasets\\NEU-CLS\\train\\Pa\\Pa_140.jpg"
        string_val: "E:\\PythonProject\\System\\system\\user_data\\test\\datasets\\NEU-CLS\\train\\In\\In_264.jpg"
        string_val: "E:\\PythonProject\\System\\system\\user_data\\test\\datasets\\NEU-CLS\\train\\In\\In_90.jpg"
        string_val: "E:\\PythonProject\\System\\system\\user_data\\test\\datasets\\NEU-CLS\\train\\Cr\\Cr_206.jpg"
        string_val: "E:\\PythonProject\\System\\system\\user_data\\test\\datasets\\NEU-CLS\\train\\Sc\\Sc_208.jpg"
        string_val: "E:\\PythonProject\\System\\system\\user_data\\test\\datasets\\NEU-CLS\\train\\In\\In_123.jpg"
        string_val: "E:\\PythonProject\\System\\system\\user_data\\test\\datasets\\NEU-CLS\\train\\Sc\\Sc_99.jpg"
        string_val: "E:\\PythonProject\\System\\system\\user_data\\test\\datasets\\NEU-CLS\\train\\Cr\\Cr_235.jpg"
        string_val: "E:\\PythonProject\\System\\system\\user_data\\test\\datasets\\NEU-CLS\\train\\RS\\RS_74.jpg"
        string_val: "E:\\PythonProject\\System\\system\\user_data\\test\\datasets\\NEU-CLS\\train\\PS\\PS_140.jpg"
        string_val: "E:\\PythonProject\\System\\system\\user_data\\test\\datasets\\NEU-CLS\\train\\Cr\\Cr_65.jpg"
        string_val: "E:\\PythonProject\\System\\system\\user_data\\test\\datasets\\NEU-CLS\\train\\PS\\PS_225.jpg"
        string_val: "E:\\PythonProject\\System\\system\\user_data\\test\\datasets\\NEU-CLS\\train\\Pa\\Pa_144.jpg"
        string_val: "E:\\PythonProject\\System\\system\\user_data\\test\\datasets\\NEU-CLS\\train\\Pa\\Pa_129.jpg"
        string_val: "E:\\PythonProject\\System\\system\\user_data\\test\\datasets\\NEU-CLS\\train\\PS\\PS_298.jpg"
        string_val: "E:\\PythonProject\\System\\system\\user_data\\test\\datasets\\NEU-CLS\\train\\RS\\RS_62.jpg"
        string_val: "E:\\PythonProject\\System\\system\\user_data\\test\\datasets\\NEU-CLS\\train\\Pa\\Pa_255.jpg"
        string_val: "E:\\PythonProject\\System\\system\\user_data\\test\\datasets\\NEU-CLS\\train\\Cr\\Cr_4.jpg"
        string_val: "E:\\PythonProject\\System\\system\\user_data\\test\\datasets\\NEU-CLS\\train\\Cr\\Cr_179.jpg"
        string_val: "E:\\PythonProject\\System\\system\\user_data\\test\\datasets\\NEU-CLS\\train\\Pa\\Pa_221.jpg"
        string_val: "E:\\PythonProject\\System\\system\\user_data\\test\\datasets\\NEU-CLS\\train\\PS\\PS_97.jpg"
        string_val: "E:\\PythonProject\\System\\system\\user_data\\test\\datasets\\NEU-CLS\\train\\Cr\\Cr_230.jpg"
        string_val: "E:\\PythonProject\\System\\system\\user_data\\test\\datasets\\NEU-CLS\\train\\PS\\PS_178.jpg"
        string_val: "E:\\PythonProject\\System\\system\\user_data\\test\\datasets\\NEU-CLS\\train\\In\\In_233.jpg"
        string_val: "E:\\PythonProject\\System\\system\\user_data\\test\\datasets\\NEU-CLS\\train\\Pa\\Pa_58.jpg"
        string_val: "E:\\PythonProject\\System\\system\\user_data\\test\\datasets\\NEU-CLS\\train\\PS\\PS_238.jpg"
        string_val: "E:\\PythonProject\\System\\system\\user_data\\test\\datasets\\NEU-CLS\\train\\Pa\\Pa_279.jpg"
        string_val: "E:\\PythonProject\\System\\system\\user_data\\test\\datasets\\NEU-CLS\\train\\PS\\PS_173.jpg"
        string_val: "E:\\PythonProject\\System\\system\\user_data\\test\\datasets\\NEU-CLS\\train\\Pa\\Pa_60.jpg"
        string_val: "E:\\PythonProject\\System\\system\\user_data\\test\\datasets\\NEU-CLS\\train\\PS\\PS_85.jpg"
        string_val: "E:\\PythonProject\\System\\system\\user_data\\test\\datasets\\NEU-CLS\\train\\PS\\PS_110.jpg"
        string_val: "E:\\PythonProject\\System\\system\\user_data\\test\\datasets\\NEU-CLS\\train\\PS\\PS_15.jpg"
        string_val: "E:\\PythonProject\\System\\system\\user_data\\test\\datasets\\NEU-CLS\\train\\Sc\\Sc_265.jpg"
        string_val: "E:\\PythonProject\\System\\system\\user_data\\test\\datasets\\NEU-CLS\\train\\In\\In_225.jpg"
        string_val: "E:\\PythonProject\\System\\system\\user_data\\test\\datasets\\NEU-CLS\\train\\Sc\\Sc_294.jpg"
        string_val: "E:\\PythonProject\\System\\system\\user_data\\test\\datasets\\NEU-CLS\\train\\Sc\\Sc_88.jpg"
        string_val: "E:\\PythonProject\\System\\system\\user_data\\test\\datasets\\NEU-CLS\\train\\Sc\\Sc_96.jpg"
        string_val: "E:\\PythonProject\\System\\system\\user_data\\test\\datasets\\NEU-CLS\\train\\RS\\RS_187.jpg"
        string_val: "E:\\PythonProject\\System\\system\\user_data\\test\\datasets\\NEU-CLS\\train\\RS\\RS_108.jpg"
        string_val: "E:\\PythonProject\\System\\system\\user_data\\test\\datasets\\NEU-CLS\\train\\RS\\RS_217.jpg"
        string_val: "E:\\PythonProject\\System\\system\\user_data\\test\\datasets\\NEU-CLS\\train\\Pa\\Pa_190.jpg"
        string_val: "E:\\PythonProject\\System\\system\\user_data\\test\\datasets\\NEU-CLS\\train\\In\\In_215.jpg"
        string_val: "E:\\PythonProject\\System\\system\\user_data\\test\\datasets\\NEU-CLS\\train\\Sc\\Sc_65.jpg"
        string_val: "E:\\PythonProject\\System\\system\\user_data\\test\\datasets\\NEU-CLS\\train\\RS\\RS_100.jpg"
        string_val: "E:\\PythonProject\\System\\system\\user_data\\test\\datasets\\NEU-CLS\\train\\RS\\RS_16.jpg"
        string_val: "E:\\PythonProject\\System\\system\\user_data\\test\\datasets\\NEU-CLS\\train\\Pa\\Pa_113.jpg"
        string_val: "E:\\PythonProject\\System\\system\\user_data\\test\\datasets\\NEU-CLS\\train\\Cr\\Cr_17.jpg"
        string_val: "E:\\PythonProject\\System\\system\\user_data\\test\\datasets\\NEU-CLS\\train\\RS\\RS_109.jpg"
        string_val: "E:\\PythonProject\\System\\system\\user_data\\test\\datasets\\NEU-CLS\\train\\In\\In_177.jpg"
        string_val: "E:\\PythonProject\\System\\system\\user_data\\test\\datasets\\NEU-CLS\\train\\RS\\RS_246.jpg"
        string_val: "E:\\PythonProject\\System\\system\\user_data\\test\\datasets\\NEU-CLS\\train\\In\\In_235.jpg"
        string_val: "E:\\PythonProject\\System\\system\\user_data\\test\\datasets\\NEU-CLS\\train\\Sc\\Sc_117.jpg"
        string_val: "E:\\PythonProject\\System\\system\\user_data\\test\\datasets\\NEU-CLS\\train\\Sc\\Sc_279.jpg"
        string_val: "E:\\PythonProject\\System\\system\\user_data\\test\\datasets\\NEU-CLS\\train\\In\\In_272.jpg"
        string_val: "E:\\PythonProject\\System\\system\\user_data\\test\\datasets\\NEU-CLS\\train\\Sc\\Sc_36.jpg"
        string_val: "E:\\PythonProject\\System\\system\\user_data\\test\\datasets\\NEU-CLS\\train\\PS\\PS_47.jpg"
        string_val: "E:\\PythonProject\\System\\system\\user_data\\test\\datasets\\NEU-CLS\\train\\Pa\\Pa_8.jpg"
        string_val: "E:\\PythonProject\\System\\system\\user_data\\test\\datasets\\NEU-CLS\\train\\In\\In_93.jpg"
        string_val: "E:\\PythonProject\\System\\system\\user_data\\test\\datasets\\NEU-CLS\\train\\Cr\\Cr_60.jpg"
        string_val: "E:\\PythonProject\\System\\system\\user_data\\test\\datasets\\NEU-CLS\\train\\PS\\PS_179.jpg"
        string_val: "E:\\PythonProject\\System\\system\\user_data\\test\\datasets\\NEU-CLS\\train\\Cr\\Cr_120.jpg"
        string_val: "E:\\PythonProject\\System\\system\\user_data\\test\\datasets\\NEU-CLS\\train\\RS\\RS_223.jpg"
        string_val: "E:\\PythonProject\\System\\system\\user_data\\test\\datasets\\NEU-CLS\\train\\Pa\\Pa_237.jpg"
        string_val: "E:\\PythonProject\\System\\system\\user_data\\test\\datasets\\NEU-CLS\\train\\PS\\PS_275.jpg"
        string_val: "E:\\PythonProject\\System\\system\\user_data\\test\\datasets\\NEU-CLS\\train\\RS\\RS_49.jpg"
        string_val: "E:\\PythonProject\\System\\system\\user_data\\test\\datasets\\NEU-CLS\\train\\PS\\PS_32.jpg"
        string_val: "E:\\PythonProject\\System\\system\\user_data\\test\\datasets\\NEU-CLS\\train\\Cr\\Cr_155.jpg"
        string_val: "E:\\PythonProject\\System\\system\\user_data\\test\\datasets\\NEU-CLS\\train\\PS\\PS_141.jpg"
        string_val: "E:\\PythonProject\\System\\system\\user_data\\test\\datasets\\NEU-CLS\\train\\Pa\\Pa_27.jpg"
        string_val: "E:\\PythonProject\\System\\system\\user_data\\test\\datasets\\NEU-CLS\\train\\Cr\\Cr_117.jpg"
        string_val: "E:\\PythonProject\\System\\system\\user_data\\test\\datasets\\NEU-CLS\\train\\Cr\\Cr_41.jpg"
        string_val: "E:\\PythonProject\\System\\system\\user_data\\test\\datasets\\NEU-CLS\\train\\RS\\RS_225.jpg"
        string_val: "E:\\PythonProject\\System\\system\\user_data\\test\\datasets\\NEU-CLS\\train\\PS\\PS_252.jpg"
        string_val: "E:\\PythonProject\\System\\system\\user_data\\test\\datasets\\NEU-CLS\\train\\Sc\\Sc_251.jpg"
        string_val: "E:\\PythonProject\\System\\system\\user_data\\test\\datasets\\NEU-CLS\\train\\In\\In_260.jpg"
        string_val: "E:\\PythonProject\\System\\system\\user_data\\test\\datasets\\NEU-CLS\\train\\In\\In_267.jpg"
        string_val: "E:\\PythonProject\\System\\system\\user_data\\test\\datasets\\NEU-CLS\\train\\Cr\\Cr_108.jpg"
        string_val: "E:\\PythonProject\\System\\system\\user_data\\test\\datasets\\NEU-CLS\\train\\Pa\\Pa_152.jpg"
        string_val: "E:\\PythonProject\\System\\system\\user_data\\test\\datasets\\NEU-CLS\\train\\Pa\\Pa_213.jpg"
        string_val: "E:\\PythonProject\\System\\system\\user_data\\test\\datasets\\NEU-CLS\\train\\RS\\RS_28.jpg"
        string_val: "E:\\PythonProject\\System\\system\\user_data\\test\\datasets\\NEU-CLS\\train\\Cr\\Cr_30.jpg"
        string_val: "E:\\PythonProject\\System\\system\\user_data\\test\\datasets\\NEU-CLS\\train\\PS\\PS_65.jpg"
        string_val: "E:\\PythonProject\\System\\system\\user_data\\test\\datasets\\NEU-CLS\\train\\Sc\\Sc_91.jpg"
        string_val: "E:\\PythonProject\\System\\system\\user_data\\test\\datasets\\NEU-CLS\\train\\Cr\\Cr_28.jpg"
        string_val: "E:\\PythonProject\\System\\system\\user_data\\test\\datasets\\NEU-CLS\\train\\PS\\PS_120.jpg"
        string_val: "E:\\PythonProject\\System\\system\\user_data\\test\\datasets\\NEU-CLS\\train\\In\\In_180.jpg"
        string_val: "E:\\PythonProject\\System\\system\\user_data\\test\\datasets\\NEU-CLS\\train\\PS\\PS_73.jpg"
        string_val: "E:\\PythonProject\\System\\system\\user_data\\test\\datasets\\NEU-CLS\\train\\RS\\RS_139.jpg"
        string_val: "E:\\PythonProject\\System\\system\\user_data\\test\\datasets\\NEU-CLS\\train\\RS\\RS_47.jpg"
        string_val: "E:\\PythonProject\\System\\system\\user_data\\test\\datasets\\NEU-CLS\\train\\Sc\\Sc_97.jpg"
        string_val: "E:\\PythonProject\\System\\system\\user_data\\test\\datasets\\NEU-CLS\\train\\Pa\\Pa_39.jpg"
        string_val: "E:\\PythonProject\\System\\system\\user_data\\test\\datasets\\NEU-CLS\\train\\Sc\\Sc_297.jpg"
        string_val: "E:\\PythonProject\\System\\system\\user_data\\test\\datasets\\NEU-CLS\\train\\Pa\\Pa_11.jpg"
        string_val: "E:\\PythonProject\\System\\system\\user_data\\test\\datasets\\NEU-CLS\\train\\Sc\\Sc_213.jpg"
        string_val: "E:\\PythonProject\\System\\system\\user_data\\test\\datasets\\NEU-CLS\\train\\RS\\RS_158.jpg"
        string_val: "E:\\PythonProject\\System\\system\\user_data\\test\\datasets\\NEU-CLS\\train\\In\\In_210.jpg"
        string_val: "E:\\PythonProject\\System\\system\\user_data\\test\\datasets\\NEU-CLS\\train\\Sc\\Sc_48.jpg"
        string_val: "E:\\PythonProject\\System\\system\\user_data\\test\\datasets\\NEU-CLS\\train\\Cr\\Cr_205.jpg"
        string_val: "E:\\PythonProject\\System\\system\\user_data\\test\\datasets\\NEU-CLS\\train\\In\\In_2.jpg"
        string_val: "E:\\PythonProject\\System\\system\\user_data\\test\\datasets\\NEU-CLS\\train\\Cr\\Cr_75.jpg"
        string_val: "E:\\PythonProject\\System\\system\\user_data\\test\\datasets\\NEU-CLS\\train\\PS\\PS_229.jpg"
        string_val: "E:\\PythonProject\\System\\system\\user_data\\test\\datasets\\NEU-CLS\\train\\In\\In_106.jpg"
        string_val: "E:\\PythonProject\\System\\system\\user_data\\test\\datasets\\NEU-CLS\\train\\RS\\RS_163.jpg"
        string_val: "E:\\PythonProject\\System\\system\\user_data\\test\\datasets\\NEU-CLS\\train\\In\\In_266.jpg"
        string_val: "E:\\PythonProject\\System\\system\\user_data\\test\\datasets\\NEU-CLS\\train\\In\\In_138.jpg"
        string_val: "E:\\PythonProject\\System\\system\\user_data\\test\\datasets\\NEU-CLS\\train\\Pa\\Pa_217.jpg"
        string_val: "E:\\PythonProject\\System\\system\\user_data\\test\\datasets\\NEU-CLS\\train\\PS\\PS_193.jpg"
        string_val: "E:\\PythonProject\\System\\system\\user_data\\test\\datasets\\NEU-CLS\\train\\Cr\\Cr_257.jpg"
        string_val: "E:\\PythonProject\\System\\system\\user_data\\test\\datasets\\NEU-CLS\\train\\Cr\\Cr_29.jpg"
        string_val: "E:\\PythonProject\\System\\system\\user_data\\test\\datasets\\NEU-CLS\\train\\Pa\\Pa_178.jpg"
        string_val: "E:\\PythonProject\\System\\system\\user_data\\test\\datasets\\NEU-CLS\\train\\Sc\\Sc_71.jpg"
        string_val: "E:\\PythonProject\\System\\system\\user_data\\test\\datasets\\NEU-CLS\\train\\In\\In_58.jpg"
        string_val: "E:\\PythonProject\\System\\system\\user_data\\test\\datasets\\NEU-CLS\\train\\Pa\\Pa_55.jpg"
        string_val: "E:\\PythonProject\\System\\system\\user_data\\test\\datasets\\NEU-CLS\\train\\RS\\RS_256.jpg"
        string_val: "E:\\PythonProject\\System\\system\\user_data\\test\\datasets\\NEU-CLS\\train\\In\\In_214.jpg"
        string_val: "E:\\PythonProject\\System\\system\\user_data\\test\\datasets\\NEU-CLS\\train\\Pa\\Pa_147.jpg"
        string_val: "E:\\PythonProject\\System\\system\\user_data\\test\\datasets\\NEU-CLS\\train\\In\\In_171.jpg"
        string_val: "E:\\PythonProject\\System\\system\\user_data\\test\\datasets\\NEU-CLS\\train\\In\\In_189.jpg"
        string_val: "E:\\PythonProject\\System\\system\\user_data\\test\\datasets\\NEU-CLS\\train\\Cr\\Cr_71.jpg"
        string_val: "E:\\PythonProject\\System\\system\\user_data\\test\\datasets\\NEU-CLS\\train\\RS\\RS_277.jpg"
        string_val: "E:\\PythonProject\\System\\system\\user_data\\test\\datasets\\NEU-CLS\\train\\Pa\\Pa_140.jpg"
        string_val: "E:\\PythonProject\\System\\system\\user_data\\test\\datasets\\NEU-CLS\\train\\RS\\RS_2.jpg"
        string_val: "E:\\PythonProject\\System\\system\\user_data\\test\\datasets\\NEU-CLS\\train\\RS\\RS_157.jpg"
        string_val: "E:\\PythonProject\\System\\system\\user_data\\test\\datasets\\NEU-CLS\\train\\In\\In_108.jpg"
        string_val: "E:\\PythonProject\\System\\system\\user_data\\test\\datasets\\NEU-CLS\\train\\Sc\\Sc_51.jpg"
        string_val: "E:\\PythonProject\\System\\system\\user_data\\test\\datasets\\NEU-CLS\\train\\Pa\\Pa_26.jpg"
        string_val: "E:\\PythonProject\\System\\system\\user_data\\test\\datasets\\NEU-CLS\\train\\Sc\\Sc_203.jpg"
        string_val: "E:\\PythonProject\\System\\system\\user_data\\test\\datasets\\NEU-CLS\\train\\Cr\\Cr_201.jpg"
        string_val: "E:\\PythonProject\\System\\system\\user_data\\test\\datasets\\NEU-CLS\\train\\PS\\PS_284.jpg"
        string_val: "E:\\PythonProject\\System\\system\\user_data\\test\\datasets\\NEU-CLS\\train\\RS\\RS_73.jpg"
        string_val: "E:\\PythonProject\\System\\system\\user_data\\test\\datasets\\NEU-CLS\\train\\Sc\\Sc_14.jpg"
        string_val: "E:\\PythonProject\\System\\system\\user_data\\test\\datasets\\NEU-CLS\\train\\Sc\\Sc_232.jpg"
        string_val: "E:\\PythonProject\\System\\system\\user_data\\test\\datasets\\NEU-CLS\\train\\Cr\\Cr_20.jpg"
        string_val: "E:\\PythonProject\\System\\system\\user_data\\test\\datasets\\NEU-CLS\\train\\RS\\RS_111.jpg"
        string_val: "E:\\PythonProject\\System\\system\\user_data\\test\\datasets\\NEU-CLS\\train\\Sc\\Sc_193.jpg"
        string_val: "E:\\PythonProject\\System\\system\\user_data\\test\\datasets\\NEU-CLS\\train\\Pa\\Pa_21.jpg"
        string_val: "E:\\PythonProject\\System\\system\\user_data\\test\\datasets\\NEU-CLS\\train\\Cr\\Cr_57.jpg"
        string_val: "E:\\PythonProject\\System\\system\\user_data\\test\\datasets\\NEU-CLS\\train\\PS\\PS_204.jpg"
        string_val: "E:\\PythonProject\\System\\system\\user_data\\test\\datasets\\NEU-CLS\\train\\PS\\PS_254.jpg"
        string_val: "E:\\PythonProject\\System\\system\\user_data\\test\\datasets\\NEU-CLS\\train\\Pa\\Pa_103.jpg"
        string_val: "E:\\PythonProject\\System\\system\\user_data\\test\\datasets\\NEU-CLS\\train\\Sc\\Sc_146.jpg"
        string_val: "E:\\PythonProject\\System\\system\\user_data\\test\\datasets\\NEU-CLS\\train\\RS\\RS_281.jpg"
        string_val: "E:\\PythonProject\\System\\system\\user_data\\test\\datasets\\NEU-CLS\\train\\In\\In_91.jpg"
        string_val: "E:\\PythonProject\\System\\system\\user_data\\test\\datasets\\NEU-CLS\\train\\Sc\\Sc_218.jpg"
        string_val: "E:\\PythonProject\\System\\system\\user_data\\test\\datasets\\NEU-CLS\\train\\RS\\RS_70.jpg"
        string_val: "E:\\PythonProject\\System\\system\\user_data\\test\\datasets\\NEU-CLS\\train\\RS\\RS_171.jpg"
        string_val: "E:\\PythonProject\\System\\system\\user_data\\test\\datasets\\NEU-CLS\\train\\Pa\\Pa_23.jpg"
        string_val: "E:\\PythonProject\\System\\system\\user_data\\test\\datasets\\NEU-CLS\\train\\PS\\PS_195.jpg"
        string_val: "E:\\PythonProject\\System\\system\\user_data\\test\\datasets\\NEU-CLS\\train\\Cr\\Cr_23.jpg"
        string_val: "E:\\PythonProject\\System\\system\\user_data\\test\\datasets\\NEU-CLS\\train\\RS\\RS_125.jpg"
        string_val: "E:\\PythonProject\\System\\system\\user_data\\test\\datasets\\NEU-CLS\\train\\Cr\\Cr_268.jpg"
        string_val: "E:\\PythonProject\\System\\system\\user_data\\test\\datasets\\NEU-CLS\\train\\Sc\\Sc_272.jpg"
        string_val: "E:\\PythonProject\\System\\system\\user_data\\test\\datasets\\NEU-CLS\\train\\RS\\RS_2.jpg"
        string_val: "E:\\PythonProject\\System\\system\\user_data\\test\\datasets\\NEU-CLS\\train\\Cr\\Cr_255.jpg"
        string_val: "E:\\PythonProject\\System\\system\\user_data\\test\\datasets\\NEU-CLS\\train\\RS\\RS_248.jpg"
        string_val: "E:\\PythonProject\\System\\system\\user_data\\test\\datasets\\NEU-CLS\\train\\Sc\\Sc_254.jpg"
        string_val: "E:\\PythonProject\\System\\system\\user_data\\test\\datasets\\NEU-CLS\\train\\PS\\PS_107.jpg"
        string_val: "E:\\PythonProject\\System\\system\\user_data\\test\\datasets\\NEU-CLS\\train\\PS\\PS_159.jpg"
        string_val: "E:\\PythonProject\\System\\system\\user_data\\test\\datasets\\NEU-CLS\\train\\Sc\\Sc_106.jpg"
        string_val: "E:\\PythonProject\\System\\system\\user_data\\test\\datasets\\NEU-CLS\\train\\Sc\\Sc_280.jpg"
        string_val: "E:\\PythonProject\\System\\system\\user_data\\test\\datasets\\NEU-CLS\\train\\Pa\\Pa_39.jpg"
        string_val: "E:\\PythonProject\\System\\system\\user_data\\test\\datasets\\NEU-CLS\\train\\RS\\RS_4.jpg"
        string_val: "E:\\PythonProject\\System\\system\\user_data\\test\\datasets\\NEU-CLS\\train\\Pa\\Pa_223.jpg"
        string_val: "E:\\PythonProject\\System\\system\\user_data\\test\\datasets\\NEU-CLS\\train\\Sc\\Sc_149.jpg"
        string_val: "E:\\PythonProject\\System\\system\\user_data\\test\\datasets\\NEU-CLS\\train\\PS\\PS_271.jpg"
        string_val: "E:\\PythonProject\\System\\system\\user_data\\test\\datasets\\NEU-CLS\\train\\In\\In_5.jpg"
        string_val: "E:\\PythonProject\\System\\system\\user_data\\test\\datasets\\NEU-CLS\\train\\Sc\\Sc_207.jpg"
        string_val: "E:\\PythonProject\\System\\system\\user_data\\test\\datasets\\NEU-CLS\\train\\Cr\\Cr_192.jpg"
        string_val: "E:\\PythonProject\\System\\system\\user_data\\test\\datasets\\NEU-CLS\\train\\Sc\\Sc_188.jpg"
        string_val: "E:\\PythonProject\\System\\system\\user_data\\test\\datasets\\NEU-CLS\\train\\Pa\\Pa_125.jpg"
        string_val: "E:\\PythonProject\\System\\system\\user_data\\test\\datasets\\NEU-CLS\\train\\Cr\\Cr_1.jpg"
        string_val: "E:\\PythonProject\\System\\system\\user_data\\test\\datasets\\NEU-CLS\\train\\Sc\\Sc_55.jpg"
        string_val: "E:\\PythonProject\\System\\system\\user_data\\test\\datasets\\NEU-CLS\\train\\Sc\\Sc_276.jpg"
        string_val: "E:\\PythonProject\\System\\system\\user_data\\test\\datasets\\NEU-CLS\\train\\Cr\\Cr_66.jpg"
        string_val: "E:\\PythonProject\\System\\system\\user_data\\test\\datasets\\NEU-CLS\\train\\In\\In_246.jpg"
        string_val: "E:\\PythonProject\\System\\system\\user_data\\test\\datasets\\NEU-CLS\\train\\In\\In_234.jpg"
        string_val: "E:\\PythonProject\\System\\system\\user_data\\test\\datasets\\NEU-CLS\\train\\Pa\\Pa_87.jpg"
        string_val: "E:\\PythonProject\\System\\system\\user_data\\test\\datasets\\NEU-CLS\\train\\PS\\PS_188.jpg"
        string_val: "E:\\PythonProject\\System\\system\\user_data\\test\\datasets\\NEU-CLS\\train\\RS\\RS_138.jpg"
        string_val: "E:\\PythonProject\\System\\system\\user_data\\test\\datasets\\NEU-CLS\\train\\In\\In_85.jpg"
        string_val: "E:\\PythonProject\\System\\system\\user_data\\test\\datasets\\NEU-CLS\\train\\PS\\PS_89.jpg"
        string_val: "E:\\PythonProject\\System\\system\\user_data\\test\\datasets\\NEU-CLS\\train\\RS\\RS_249.jpg"
        string_val: "E:\\PythonProject\\System\\system\\user_data\\test\\datasets\\NEU-CLS\\train\\Pa\\Pa_192.jpg"
        string_val: "E:\\PythonProject\\System\\system\\user_data\\test\\datasets\\NEU-CLS\\train\\PS\\PS_42.jpg"
        string_val: "E:\\PythonProject\\System\\system\\user_data\\test\\datasets\\NEU-CLS\\train\\PS\\PS_101.jpg"
        string_val: "E:\\PythonProject\\System\\system\\user_data\\test\\datasets\\NEU-CLS\\train\\Cr\\Cr_50.jpg"
        string_val: "E:\\PythonProject\\System\\system\\user_data\\test\\datasets\\NEU-CLS\\train\\In\\In_87.jpg"
        string_val: "E:\\PythonProject\\System\\system\\user_data\\test\\datasets\\NEU-CLS\\train\\In\\In_228.jpg"
        string_val: "E:\\PythonProject\\System\\system\\user_data\\test\\datasets\\NEU-CLS\\train\\Pa\\Pa_239.jpg"
        string_val: "E:\\PythonProject\\System\\system\\user_data\\test\\datasets\\NEU-CLS\\train\\RS\\RS_159.jpg"
        string_val: "E:\\PythonProject\\System\\system\\user_data\\test\\datasets\\NEU-CLS\\train\\In\\In_6.jpg"
        string_val: "E:\\PythonProject\\System\\system\\user_data\\test\\datasets\\NEU-CLS\\train\\Sc\\Sc_79.jpg"
        string_val: "E:\\PythonProject\\System\\system\\user_data\\test\\datasets\\NEU-CLS\\train\\PS\\PS_157.jpg"
        string_val: "E:\\PythonProject\\System\\system\\user_data\\test\\datasets\\NEU-CLS\\train\\PS\\PS_60.jpg"
        string_val: "E:\\PythonProject\\System\\system\\user_data\\test\\datasets\\NEU-CLS\\train\\RS\\RS_80.jpg"
        string_val: "E:\\PythonProject\\System\\system\\user_data\\test\\datasets\\NEU-CLS\\train\\RS\\RS_140.jpg"
        string_val: "E:\\PythonProject\\System\\system\\user_data\\test\\datasets\\NEU-CLS\\train\\RS\\RS_15.jpg"
        string_val: "E:\\PythonProject\\System\\system\\user_data\\test\\datasets\\NEU-CLS\\train\\RS\\RS_9.jpg"
        string_val: "E:\\PythonProject\\System\\system\\user_data\\test\\datasets\\NEU-CLS\\train\\Pa\\Pa_231.jpg"
        string_val: "E:\\PythonProject\\System\\system\\user_data\\test\\datasets\\NEU-CLS\\train\\Cr\\Cr_169.jpg"
        string_val: "E:\\PythonProject\\System\\system\\user_data\\test\\datasets\\NEU-CLS\\train\\RS\\RS_276.jpg"
        string_val: "E:\\PythonProject\\System\\system\\user_data\\test\\datasets\\NEU-CLS\\train\\Pa\\Pa_47.jpg"
        string_val: "E:\\PythonProject\\System\\system\\user_data\\test\\datasets\\NEU-CLS\\train\\RS\\RS_156.jpg"
        string_val: "E:\\PythonProject\\System\\system\\user_data\\test\\datasets\\NEU-CLS\\train\\Cr\\Cr_105.jpg"
        string_val: "E:\\PythonProject\\System\\system\\user_data\\test\\datasets\\NEU-CLS\\train\\RS\\RS_23.jpg"
        string_val: "E:\\PythonProject\\System\\system\\user_data\\test\\datasets\\NEU-CLS\\train\\PS\\PS_137.jpg"
        string_val: "E:\\PythonProject\\System\\system\\user_data\\test\\datasets\\NEU-CLS\\train\\Cr\\Cr_34.jpg"
        string_val: "E:\\PythonProject\\System\\system\\user_data\\test\\datasets\\NEU-CLS\\train\\Cr\\Cr_179.jpg"
        string_val: "E:\\PythonProject\\System\\system\\user_data\\test\\datasets\\NEU-CLS\\train\\PS\\PS_93.jpg"
        string_val: "E:\\PythonProject\\System\\system\\user_data\\test\\datasets\\NEU-CLS\\train\\RS\\RS_203.jpg"
        string_val: "E:\\PythonProject\\System\\system\\user_data\\test\\datasets\\NEU-CLS\\train\\In\\In_181.jpg"
        string_val: "E:\\PythonProject\\System\\system\\user_data\\test\\datasets\\NEU-CLS\\train\\In\\In_292.jpg"
        string_val: "E:\\PythonProject\\System\\system\\user_data\\test\\datasets\\NEU-CLS\\train\\Pa\\Pa_136.jpg"
        string_val: "E:\\PythonProject\\System\\system\\user_data\\test\\datasets\\NEU-CLS\\train\\Sc\\Sc_149.jpg"
        string_val: "E:\\PythonProject\\System\\system\\user_data\\test\\datasets\\NEU-CLS\\train\\Pa\\Pa_15.jpg"
        string_val: "E:\\PythonProject\\System\\system\\user_data\\test\\datasets\\NEU-CLS\\train\\Pa\\Pa_32.jpg"
        string_val: "E:\\PythonProject\\System\\system\\user_data\\test\\datasets\\NEU-CLS\\train\\RS\\RS_199.jpg"
        string_val: "E:\\PythonProject\\System\\system\\user_data\\test\\datasets\\NEU-CLS\\train\\RS\\RS_22.jpg"
        string_val: "E:\\PythonProject\\System\\system\\user_data\\test\\datasets\\NEU-CLS\\train\\Cr\\Cr_269.jpg"
        string_val: "E:\\PythonProject\\System\\system\\user_data\\test\\datasets\\NEU-CLS\\train\\Cr\\Cr_43.jpg"
        string_val: "E:\\PythonProject\\System\\system\\user_data\\test\\datasets\\NEU-CLS\\train\\Pa\\Pa_31.jpg"
        string_val: "E:\\PythonProject\\System\\system\\user_data\\test\\datasets\\NEU-CLS\\train\\RS\\RS_291.jpg"
        string_val: "E:\\PythonProject\\System\\system\\user_data\\test\\datasets\\NEU-CLS\\train\\Pa\\Pa_43.jpg"
        string_val: "E:\\PythonProject\\System\\system\\user_data\\test\\datasets\\NEU-CLS\\train\\Sc\\Sc_85.jpg"
        string_val: "E:\\PythonProject\\System\\system\\user_data\\test\\datasets\\NEU-CLS\\train\\Sc\\Sc_124.jpg"
        string_val: "E:\\PythonProject\\System\\system\\user_data\\test\\datasets\\NEU-CLS\\train\\In\\In_21.jpg"
        string_val: "E:\\PythonProject\\System\\system\\user_data\\test\\datasets\\NEU-CLS\\train\\Pa\\Pa_273.jpg"
        string_val: "E:\\PythonProject\\System\\system\\user_data\\test\\datasets\\NEU-CLS\\train\\Sc\\Sc_53.jpg"
        string_val: "E:\\PythonProject\\System\\system\\user_data\\test\\datasets\\NEU-CLS\\train\\Pa\\Pa_105.jpg"
        string_val: "E:\\PythonProject\\System\\system\\user_data\\test\\datasets\\NEU-CLS\\train\\Pa\\Pa_141.jpg"
        string_val: "E:\\PythonProject\\System\\system\\user_data\\test\\datasets\\NEU-CLS\\train\\In\\In_284.jpg"
        string_val: "E:\\PythonProject\\System\\system\\user_data\\test\\datasets\\NEU-CLS\\train\\Cr\\Cr_276.jpg"
        string_val: "E:\\PythonProject\\System\\system\\user_data\\test\\datasets\\NEU-CLS\\train\\PS\\PS_265.jpg"
        string_val: "E:\\PythonProject\\System\\system\\user_data\\test\\datasets\\NEU-CLS\\train\\In\\In_78.jpg"
        string_val: "E:\\PythonProject\\System\\system\\user_data\\test\\datasets\\NEU-CLS\\train\\PS\\PS_195.jpg"
        string_val: "E:\\PythonProject\\System\\system\\user_data\\test\\datasets\\NEU-CLS\\train\\Sc\\Sc_240.jpg"
        string_val: "E:\\PythonProject\\System\\system\\user_data\\test\\datasets\\NEU-CLS\\train\\Pa\\Pa_119.jpg"
        string_val: "E:\\PythonProject\\System\\system\\user_data\\test\\datasets\\NEU-CLS\\train\\RS\\RS_38.jpg"
        string_val: "E:\\PythonProject\\System\\system\\user_data\\test\\datasets\\NEU-CLS\\train\\RS\\RS_103.jpg"
        string_val: "E:\\PythonProject\\System\\system\\user_data\\test\\datasets\\NEU-CLS\\train\\PS\\PS_56.jpg"
        string_val: "E:\\PythonProject\\System\\system\\user_data\\test\\datasets\\NEU-CLS\\train\\Cr\\Cr_68.jpg"
        string_val: "E:\\PythonProject\\System\\system\\user_data\\test\\datasets\\NEU-CLS\\train\\Pa\\Pa_86.jpg"
        string_val: "E:\\PythonProject\\System\\system\\user_data\\test\\datasets\\NEU-CLS\\train\\PS\\PS_13.jpg"
        string_val: "E:\\PythonProject\\System\\system\\user_data\\test\\datasets\\NEU-CLS\\train\\PS\\PS_40.jpg"
        string_val: "E:\\PythonProject\\System\\system\\user_data\\test\\datasets\\NEU-CLS\\train\\In\\In_171.jpg"
        string_val: "E:\\PythonProject\\System\\system\\user_data\\test\\datasets\\NEU-CLS\\train\\In\\In_274.jpg"
        string_val: "E:\\PythonProject\\System\\system\\user_data\\test\\datasets\\NEU-CLS\\train\\In\\In_97.jpg"
        string_val: "E:\\PythonProject\\System\\system\\user_data\\test\\datasets\\NEU-CLS\\train\\Sc\\Sc_185.jpg"
        string_val: "E:\\PythonProject\\System\\system\\user_data\\test\\datasets\\NEU-CLS\\train\\RS\\RS_264.jpg"
        string_val: "E:\\PythonProject\\System\\system\\user_data\\test\\datasets\\NEU-CLS\\train\\Sc\\Sc_209.jpg"
        string_val: "E:\\PythonProject\\System\\system\\user_data\\test\\datasets\\NEU-CLS\\train\\Cr\\Cr_196.jpg"
        string_val: "E:\\PythonProject\\System\\system\\user_data\\test\\datasets\\NEU-CLS\\train\\In\\In_160.jpg"
        string_val: "E:\\PythonProject\\System\\system\\user_data\\test\\datasets\\NEU-CLS\\train\\Cr\\Cr_38.jpg"
        string_val: "E:\\PythonProject\\System\\system\\user_data\\test\\datasets\\NEU-CLS\\train\\Sc\\Sc_148.jpg"
        string_val: "E:\\PythonProject\\System\\system\\user_data\\test\\datasets\\NEU-CLS\\train\\RS\\RS_156.jpg"
        string_val: "E:\\PythonProject\\System\\system\\user_data\\test\\datasets\\NEU-CLS\\train\\Sc\\Sc_190.jpg"
        string_val: "E:\\PythonProject\\System\\system\\user_data\\test\\datasets\\NEU-CLS\\train\\Sc\\Sc_161.jpg"
        string_val: "E:\\PythonProject\\System\\system\\user_data\\test\\datasets\\NEU-CLS\\train\\Cr\\Cr_277.jpg"
        string_val: "E:\\PythonProject\\System\\system\\user_data\\test\\datasets\\NEU-CLS\\train\\Cr\\Cr_35.jpg"
        string_val: "E:\\PythonProject\\System\\system\\user_data\\test\\datasets\\NEU-CLS\\train\\Pa\\Pa_196.jpg"
        string_val: "E:\\PythonProject\\System\\system\\user_data\\test\\datasets\\NEU-CLS\\train\\Sc\\Sc_280.jpg"
        string_val: "E:\\PythonProject\\System\\system\\user_data\\test\\datasets\\NEU-CLS\\train\\In\\In_22.jpg"
        string_val: "E:\\PythonProject\\System\\system\\user_data\\test\\datasets\\NEU-CLS\\train\\Cr\\Cr_107.jpg"
        string_val: "E:\\PythonProject\\System\\system\\user_data\\test\\datasets\\NEU-CLS\\train\\RS\\RS_59.jpg"
        string_val: "E:\\PythonProject\\System\\system\\user_data\\test\\datasets\\NEU-CLS\\train\\In\\In_253.jpg"
        string_val: "E:\\PythonProject\\System\\system\\user_data\\test\\datasets\\NEU-CLS\\train\\Pa\\Pa_190.jpg"
        string_val: "E:\\PythonProject\\System\\system\\user_data\\test\\datasets\\NEU-CLS\\train\\PS\\PS_184.jpg"
        string_val: "E:\\PythonProject\\System\\system\\user_data\\test\\datasets\\NEU-CLS\\train\\Cr\\Cr_277.jpg"
        string_val: "E:\\PythonProject\\System\\system\\user_data\\test\\datasets\\NEU-CLS\\train\\Pa\\Pa_250.jpg"
        string_val: "E:\\PythonProject\\System\\system\\user_data\\test\\datasets\\NEU-CLS\\train\\Sc\\Sc_18.jpg"
        string_val: "E:\\PythonProject\\System\\system\\user_data\\test\\datasets\\NEU-CLS\\train\\RS\\RS_147.jpg"
        string_val: "E:\\PythonProject\\System\\system\\user_data\\test\\datasets\\NEU-CLS\\train\\RS\\RS_190.jpg"
        string_val: "E:\\PythonProject\\System\\system\\user_data\\test\\datasets\\NEU-CLS\\train\\Cr\\Cr_94.jpg"
        string_val: "E:\\PythonProject\\System\\system\\user_data\\test\\datasets\\NEU-CLS\\train\\In\\In_127.jpg"
        string_val: "E:\\PythonProject\\System\\system\\user_data\\test\\datasets\\NEU-CLS\\train\\PS\\PS_281.jpg"
        string_val: "E:\\PythonProject\\System\\system\\user_data\\test\\datasets\\NEU-CLS\\train\\Pa\\Pa_134.jpg"
        string_val: "E:\\PythonProject\\System\\system\\user_data\\test\\datasets\\NEU-CLS\\train\\Sc\\Sc_79.jpg"
        string_val: "E:\\PythonProject\\System\\system\\user_data\\test\\datasets\\NEU-CLS\\train\\PS\\PS_279.jpg"
        string_val: "E:\\PythonProject\\System\\system\\user_data\\test\\datasets\\NEU-CLS\\train\\Cr\\Cr_256.jpg"
        string_val: "E:\\PythonProject\\System\\system\\user_data\\test\\datasets\\NEU-CLS\\train\\PS\\PS_117.jpg"
        string_val: "E:\\PythonProject\\System\\system\\user_data\\test\\datasets\\NEU-CLS\\train\\Pa\\Pa_145.jpg"
        string_val: "E:\\PythonProject\\System\\system\\user_data\\test\\datasets\\NEU-CLS\\train\\Cr\\Cr_204.jpg"
        string_val: "E:\\PythonProject\\System\\system\\user_data\\test\\datasets\\NEU-CLS\\train\\In\\In_256.jpg"
        string_val: "E:\\PythonProject\\System\\system\\user_data\\test\\datasets\\NEU-CLS\\train\\In\\In_51.jpg"
        string_val: "E:\\PythonProject\\System\\system\\user_data\\test\\datasets\\NEU-CLS\\train\\Pa\\Pa_154.jpg"
        string_val: "E:\\PythonProject\\System\\system\\user_data\\test\\datasets\\NEU-CLS\\train\\In\\In_172.jpg"
        string_val: "E:\\PythonProject\\System\\system\\user_data\\test\\datasets\\NEU-CLS\\train\\Sc\\Sc_46.jpg"
        string_val: "E:\\PythonProject\\System\\system\\user_data\\test\\datasets\\NEU-CLS\\train\\Pa\\Pa_22.jpg"
        string_val: "E:\\PythonProject\\System\\system\\user_data\\test\\datasets\\NEU-CLS\\train\\RS\\RS_129.jpg"
        string_val: "E:\\PythonProject\\System\\system\\user_data\\test\\datasets\\NEU-CLS\\train\\In\\In_52.jpg"
        string_val: "E:\\PythonProject\\System\\system\\user_data\\test\\datasets\\NEU-CLS\\train\\Sc\\Sc_130.jpg"
        string_val: "E:\\PythonProject\\System\\system\\user_data\\test\\datasets\\NEU-CLS\\train\\Cr\\Cr_133.jpg"
        string_val: "E:\\PythonProject\\System\\system\\user_data\\test\\datasets\\NEU-CLS\\train\\Sc\\Sc_274.jpg"
        string_val: "E:\\PythonProject\\System\\system\\user_data\\test\\datasets\\NEU-CLS\\train\\PS\\PS_177.jpg"
        string_val: "E:\\PythonProject\\System\\system\\user_data\\test\\datasets\\NEU-CLS\\train\\Pa\\Pa_51.jpg"
        string_val: "E:\\PythonProject\\System\\system\\user_data\\test\\datasets\\NEU-CLS\\train\\Pa\\Pa_48.jpg"
        string_val: "E:\\PythonProject\\System\\system\\user_data\\test\\datasets\\NEU-CLS\\train\\PS\\PS_3.jpg"
        string_val: "E:\\PythonProject\\System\\system\\user_data\\test\\datasets\\NEU-CLS\\train\\Cr\\Cr_275.jpg"
        string_val: "E:\\PythonProject\\System\\system\\user_data\\test\\datasets\\NEU-CLS\\train\\Sc\\Sc_290.jpg"
        string_val: "E:\\PythonProject\\System\\system\\user_data\\test\\datasets\\NEU-CLS\\train\\Pa\\Pa_74.jpg"
        string_val: "E:\\PythonProject\\System\\system\\user_data\\test\\datasets\\NEU-CLS\\train\\Cr\\Cr_247.jpg"
        string_val: "E:\\PythonProject\\System\\system\\user_data\\test\\datasets\\NEU-CLS\\train\\In\\In_223.jpg"
        string_val: "E:\\PythonProject\\System\\system\\user_data\\test\\datasets\\NEU-CLS\\train\\Cr\\Cr_261.jpg"
        string_val: "E:\\PythonProject\\System\\system\\user_data\\test\\datasets\\NEU-CLS\\train\\In\\In_68.jpg"
        string_val: "E:\\PythonProject\\System\\system\\user_data\\test\\datasets\\NEU-CLS\\train\\RS\\RS_104.jpg"
        string_val: "E:\\PythonProject\\System\\system\\user_data\\test\\datasets\\NEU-CLS\\train\\PS\\PS_229.jpg"
        string_val: "E:\\PythonProject\\System\\system\\user_data\\test\\datasets\\NEU-CLS\\train\\In\\In_139.jpg"
        string_val: "E:\\PythonProject\\System\\system\\user_data\\test\\datasets\\NEU-CLS\\train\\Pa\\Pa_42.jpg"
        string_val: "E:\\PythonProject\\System\\system\\user_data\\test\\datasets\\NEU-CLS\\train\\PS\\PS_45.jpg"
        string_val: "E:\\PythonProject\\System\\system\\user_data\\test\\datasets\\NEU-CLS\\train\\Pa\\Pa_285.jpg"
        string_val: "E:\\PythonProject\\System\\system\\user_data\\test\\datasets\\NEU-CLS\\train\\In\\In_15.jpg"
        string_val: "E:\\PythonProject\\System\\system\\user_data\\test\\datasets\\NEU-CLS\\train\\Pa\\Pa_17.jpg"
        string_val: "E:\\PythonProject\\System\\system\\user_data\\test\\datasets\\NEU-CLS\\train\\Cr\\Cr_115.jpg"
        string_val: "E:\\PythonProject\\System\\system\\user_data\\test\\datasets\\NEU-CLS\\train\\In\\In_153.jpg"
        string_val: "E:\\PythonProject\\System\\system\\user_data\\test\\datasets\\NEU-CLS\\train\\Pa\\Pa_10.jpg"
        string_val: "E:\\PythonProject\\System\\system\\user_data\\test\\datasets\\NEU-CLS\\train\\In\\In_52.jpg"
        string_val: "E:\\PythonProject\\System\\system\\user_data\\test\\datasets\\NEU-CLS\\train\\Sc\\Sc_14.jpg"
        string_val: "E:\\PythonProject\\System\\system\\user_data\\test\\datasets\\NEU-CLS\\train\\PS\\PS_210.jpg"
        string_val: "E:\\PythonProject\\System\\system\\user_data\\test\\datasets\\NEU-CLS\\train\\PS\\PS_199.jpg"
        string_val: "E:\\PythonProject\\System\\system\\user_data\\test\\datasets\\NEU-CLS\\train\\RS\\RS_221.jpg"
        string_val: "E:\\PythonProject\\System\\system\\user_data\\test\\datasets\\NEU-CLS\\train\\RS\\RS_284.jpg"
        string_val: "E:\\PythonProject\\System\\system\\user_data\\test\\datasets\\NEU-CLS\\train\\RS\\RS_10.jpg"
        string_val: "E:\\PythonProject\\System\\system\\user_data\\test\\datasets\\NEU-CLS\\train\\Pa\\Pa_25.jpg"
        string_val: "E:\\PythonProject\\System\\system\\user_data\\test\\datasets\\NEU-CLS\\train\\In\\In_22.jpg"
        string_val: "E:\\PythonProject\\System\\system\\user_data\\test\\datasets\\NEU-CLS\\train\\In\\In_19.jpg"
        string_val: "E:\\PythonProject\\System\\system\\user_data\\test\\datasets\\NEU-CLS\\train\\In\\In_188.jpg"
        string_val: "E:\\PythonProject\\System\\system\\user_data\\test\\datasets\\NEU-CLS\\train\\Sc\\Sc_176.jpg"
        string_val: "E:\\PythonProject\\System\\system\\user_data\\test\\datasets\\NEU-CLS\\train\\RS\\RS_88.jpg"
        string_val: "E:\\PythonProject\\System\\system\\user_data\\test\\datasets\\NEU-CLS\\train\\In\\In_215.jpg"
        string_val: "E:\\PythonProject\\System\\system\\user_data\\test\\datasets\\NEU-CLS\\train\\Pa\\Pa_249.jpg"
        string_val: "E:\\PythonProject\\System\\system\\user_data\\test\\datasets\\NEU-CLS\\train\\RS\\RS_39.jpg"
        string_val: "E:\\PythonProject\\System\\system\\user_data\\test\\datasets\\NEU-CLS\\train\\Cr\\Cr_53.jpg"
        string_val: "E:\\PythonProject\\System\\system\\user_data\\test\\datasets\\NEU-CLS\\train\\Pa\\Pa_115.jpg"
        string_val: "E:\\PythonProject\\System\\system\\user_data\\test\\datasets\\NEU-CLS\\train\\Pa\\Pa_186.jpg"
        string_val: "E:\\PythonProject\\System\\system\\user_data\\test\\datasets\\NEU-CLS\\train\\In\\In_231.jpg"
        string_val: "E:\\PythonProject\\System\\system\\user_data\\test\\datasets\\NEU-CLS\\train\\Pa\\Pa_99.jpg"
        string_val: "E:\\PythonProject\\System\\system\\user_data\\test\\datasets\\NEU-CLS\\train\\Sc\\Sc_191.jpg"
        string_val: "E:\\PythonProject\\System\\system\\user_data\\test\\datasets\\NEU-CLS\\train\\Cr\\Cr_261.jpg"
        string_val: "E:\\PythonProject\\System\\system\\user_data\\test\\datasets\\NEU-CLS\\train\\RS\\RS_212.jpg"
        string_val: "E:\\PythonProject\\System\\system\\user_data\\test\\datasets\\NEU-CLS\\train\\Pa\\Pa_144.jpg"
        string_val: "E:\\PythonProject\\System\\system\\user_data\\test\\datasets\\NEU-CLS\\train\\Cr\\Cr_30.jpg"
        string_val: "E:\\PythonProject\\System\\system\\user_data\\test\\datasets\\NEU-CLS\\train\\Cr\\Cr_279.jpg"
        string_val: "E:\\PythonProject\\System\\system\\user_data\\test\\datasets\\NEU-CLS\\train\\In\\In_245.jpg"
        string_val: "E:\\PythonProject\\System\\system\\user_data\\test\\datasets\\NEU-CLS\\train\\Sc\\Sc_40.jpg"
        string_val: "E:\\PythonProject\\System\\system\\user_data\\test\\datasets\\NEU-CLS\\train\\Sc\\Sc_4.jpg"
        string_val: "E:\\PythonProject\\System\\system\\user_data\\test\\datasets\\NEU-CLS\\train\\Pa\\Pa_120.jpg"
        string_val: "E:\\PythonProject\\System\\system\\user_data\\test\\datasets\\NEU-CLS\\train\\PS\\PS_127.jpg"
        string_val: "E:\\PythonProject\\System\\system\\user_data\\test\\datasets\\NEU-CLS\\train\\In\\In_57.jpg"
        string_val: "E:\\PythonProject\\System\\system\\user_data\\test\\datasets\\NEU-CLS\\train\\RS\\RS_86.jpg"
        string_val: "E:\\PythonProject\\System\\system\\user_data\\test\\datasets\\NEU-CLS\\train\\Pa\\Pa_22.jpg"
        string_val: "E:\\PythonProject\\System\\system\\user_data\\test\\datasets\\NEU-CLS\\train\\In\\In_80.jpg"
        string_val: "E:\\PythonProject\\System\\system\\user_data\\test\\datasets\\NEU-CLS\\train\\RS\\RS_167.jpg"
        string_val: "E:\\PythonProject\\System\\system\\user_data\\test\\datasets\\NEU-CLS\\train\\RS\\RS_187.jpg"
        string_val: "E:\\PythonProject\\System\\system\\user_data\\test\\datasets\\NEU-CLS\\train\\Sc\\Sc_115.jpg"
        string_val: "E:\\PythonProject\\System\\system\\user_data\\test\\datasets\\NEU-CLS\\train\\In\\In_10.jpg"
        string_val: "E:\\PythonProject\\System\\system\\user_data\\test\\datasets\\NEU-CLS\\train\\In\\In_197.jpg"
        string_val: "E:\\PythonProject\\System\\system\\user_data\\test\\datasets\\NEU-CLS\\train\\PS\\PS_253.jpg"
        string_val: "E:\\PythonProject\\System\\system\\user_data\\test\\datasets\\NEU-CLS\\train\\PS\\PS_181.jpg"
        string_val: "E:\\PythonProject\\System\\system\\user_data\\test\\datasets\\NEU-CLS\\train\\RS\\RS_103.jpg"
        string_val: "E:\\PythonProject\\System\\system\\user_data\\test\\datasets\\NEU-CLS\\train\\PS\\PS_245.jpg"
        string_val: "E:\\PythonProject\\System\\system\\user_data\\test\\datasets\\NEU-CLS\\train\\Pa\\Pa_37.jpg"
        string_val: "E:\\PythonProject\\System\\system\\user_data\\test\\datasets\\NEU-CLS\\train\\RS\\RS_128.jpg"
        string_val: "E:\\PythonProject\\System\\system\\user_data\\test\\datasets\\NEU-CLS\\train\\In\\In_12.jpg"
        string_val: "E:\\PythonProject\\System\\system\\user_data\\test\\datasets\\NEU-CLS\\train\\Pa\\Pa_38.jpg"
        string_val: "E:\\PythonProject\\System\\system\\user_data\\test\\datasets\\NEU-CLS\\train\\RS\\RS_253.jpg"
        string_val: "E:\\PythonProject\\System\\system\\user_data\\test\\datasets\\NEU-CLS\\train\\RS\\RS_235.jpg"
        string_val: "E:\\PythonProject\\System\\system\\user_data\\test\\datasets\\NEU-CLS\\train\\Pa\\Pa_220.jpg"
        string_val: "E:\\PythonProject\\System\\system\\user_data\\test\\datasets\\NEU-CLS\\train\\In\\In_113.jpg"
        string_val: "E:\\PythonProject\\System\\system\\user_data\\test\\datasets\\NEU-CLS\\train\\Pa\\Pa_130.jpg"
        string_val: "E:\\PythonProject\\System\\system\\user_data\\test\\datasets\\NEU-CLS\\train\\Cr\\Cr_82.jpg"
        string_val: "E:\\PythonProject\\System\\system\\user_data\\test\\datasets\\NEU-CLS\\train\\In\\In_145.jpg"
        string_val: "E:\\PythonProject\\System\\system\\user_data\\test\\datasets\\NEU-CLS\\train\\Cr\\Cr_222.jpg"
        string_val: "E:\\PythonProject\\System\\system\\user_data\\test\\datasets\\NEU-CLS\\train\\Sc\\Sc_300.jpg"
        string_val: "E:\\PythonProject\\System\\system\\user_data\\test\\datasets\\NEU-CLS\\train\\PS\\PS_108.jpg"
        string_val: "E:\\PythonProject\\System\\system\\user_data\\test\\datasets\\NEU-CLS\\train\\Pa\\Pa_181.jpg"
        string_val: "E:\\PythonProject\\System\\system\\user_data\\test\\datasets\\NEU-CLS\\train\\Pa\\Pa_287.jpg"
        string_val: "E:\\PythonProject\\System\\system\\user_data\\test\\datasets\\NEU-CLS\\train\\Pa\\Pa_210.jpg"
        string_val: "E:\\PythonProject\\System\\system\\user_data\\test\\datasets\\NEU-CLS\\train\\In\\In_40.jpg"
        string_val: "E:\\PythonProject\\System\\system\\user_data\\test\\datasets\\NEU-CLS\\train\\Pa\\Pa_14.jpg"
        string_val: "E:\\PythonProject\\System\\system\\user_data\\test\\datasets\\NEU-CLS\\train\\In\\In_291.jpg"
        string_val: "E:\\PythonProject\\System\\system\\user_data\\test\\datasets\\NEU-CLS\\train\\Cr\\Cr_254.jpg"
        string_val: "E:\\PythonProject\\System\\system\\user_data\\test\\datasets\\NEU-CLS\\train\\Sc\\Sc_145.jpg"
        string_val: "E:\\PythonProject\\System\\system\\user_data\\test\\datasets\\NEU-CLS\\train\\Sc\\Sc_43.jpg"
        string_val: "E:\\PythonProject\\System\\system\\user_data\\test\\datasets\\NEU-CLS\\train\\PS\\PS_187.jpg"
        string_val: "E:\\PythonProject\\System\\system\\user_data\\test\\datasets\\NEU-CLS\\train\\Sc\\Sc_82.jpg"
        string_val: "E:\\PythonProject\\System\\system\\user_data\\test\\datasets\\NEU-CLS\\train\\Pa\\Pa_231.jpg"
        string_val: "E:\\PythonProject\\System\\system\\user_data\\test\\datasets\\NEU-CLS\\train\\RS\\RS_50.jpg"
        string_val: "E:\\PythonProject\\System\\system\\user_data\\test\\datasets\\NEU-CLS\\train\\Cr\\Cr_236.jpg"
        string_val: "E:\\PythonProject\\System\\system\\user_data\\test\\datasets\\NEU-CLS\\train\\Sc\\Sc_241.jpg"
        string_val: "E:\\PythonProject\\System\\system\\user_data\\test\\datasets\\NEU-CLS\\train\\Cr\\Cr_203.jpg"
        string_val: "E:\\PythonProject\\System\\system\\user_data\\test\\datasets\\NEU-CLS\\train\\PS\\PS_215.jpg"
        string_val: "E:\\PythonProject\\System\\system\\user_data\\test\\datasets\\NEU-CLS\\train\\Cr\\Cr_262.jpg"
        string_val: "E:\\PythonProject\\System\\system\\user_data\\test\\datasets\\NEU-CLS\\train\\PS\\PS_233.jpg"
        string_val: "E:\\PythonProject\\System\\system\\user_data\\test\\datasets\\NEU-CLS\\train\\Pa\\Pa_16.jpg"
        string_val: "E:\\PythonProject\\System\\system\\user_data\\test\\datasets\\NEU-CLS\\train\\Sc\\Sc_260.jpg"
        string_val: "E:\\PythonProject\\System\\system\\user_data\\test\\datasets\\NEU-CLS\\train\\In\\In_246.jpg"
        string_val: "E:\\PythonProject\\System\\system\\user_data\\test\\datasets\\NEU-CLS\\train\\PS\\PS_45.jpg"
        string_val: "E:\\PythonProject\\System\\system\\user_data\\test\\datasets\\NEU-CLS\\train\\Cr\\Cr_67.jpg"
        string_val: "E:\\PythonProject\\System\\system\\user_data\\test\\datasets\\NEU-CLS\\train\\PS\\PS_4.jpg"
        string_val: "E:\\PythonProject\\System\\system\\user_data\\test\\datasets\\NEU-CLS\\train\\Pa\\Pa_288.jpg"
        string_val: "E:\\PythonProject\\System\\system\\user_data\\test\\datasets\\NEU-CLS\\train\\RS\\RS_134.jpg"
        string_val: "E:\\PythonProject\\System\\system\\user_data\\test\\datasets\\NEU-CLS\\train\\Sc\\Sc_268.jpg"
        string_val: "E:\\PythonProject\\System\\system\\user_data\\test\\datasets\\NEU-CLS\\train\\RS\\RS_125.jpg"
        string_val: "E:\\PythonProject\\System\\system\\user_data\\test\\datasets\\NEU-CLS\\train\\PS\\PS_78.jpg"
        string_val: "E:\\PythonProject\\System\\system\\user_data\\test\\datasets\\NEU-CLS\\train\\In\\In_273.jpg"
        string_val: "E:\\PythonProject\\System\\system\\user_data\\test\\datasets\\NEU-CLS\\train\\Sc\\Sc_115.jpg"
        string_val: "E:\\PythonProject\\System\\system\\user_data\\test\\datasets\\NEU-CLS\\train\\PS\\PS_238.jpg"
        string_val: "E:\\PythonProject\\System\\system\\user_data\\test\\datasets\\NEU-CLS\\train\\PS\\PS_289.jpg"
        string_val: "E:\\PythonProject\\System\\system\\user_data\\test\\datasets\\NEU-CLS\\train\\PS\\PS_236.jpg"
        string_val: "E:\\PythonProject\\System\\system\\user_data\\test\\datasets\\NEU-CLS\\train\\PS\\PS_133.jpg"
        string_val: "E:\\PythonProject\\System\\system\\user_data\\test\\datasets\\NEU-CLS\\train\\Cr\\Cr_40.jpg"
        string_val: "E:\\PythonProject\\System\\system\\user_data\\test\\datasets\\NEU-CLS\\train\\RS\\RS_87.jpg"
        string_val: "E:\\PythonProject\\System\\system\\user_data\\test\\datasets\\NEU-CLS\\train\\PS\\PS_283.jpg"
        string_val: "E:\\PythonProject\\System\\system\\user_data\\test\\datasets\\NEU-CLS\\train\\RS\\RS_201.jpg"
        string_val: "E:\\PythonProject\\System\\system\\user_data\\test\\datasets\\NEU-CLS\\train\\RS\\RS_51.jpg"
        string_val: "E:\\PythonProject\\System\\system\\user_data\\test\\datasets\\NEU-CLS\\train\\Sc\\Sc_162.jpg"
        string_val: "E:\\PythonProject\\System\\system\\user_data\\test\\datasets\\NEU-CLS\\train\\Sc\\Sc_102.jpg"
        string_val: "E:\\PythonProject\\System\\system\\user_data\\test\\datasets\\NEU-CLS\\train\\In\\In_131.jpg"
        string_val: "E:\\PythonProject\\System\\system\\user_data\\test\\datasets\\NEU-CLS\\train\\Cr\\Cr_113.jpg"
        string_val: "E:\\PythonProject\\System\\system\\user_data\\test\\datasets\\NEU-CLS\\train\\Sc\\Sc_276.jpg"
        string_val: "E:\\PythonProject\\System\\system\\user_data\\test\\datasets\\NEU-CLS\\train\\PS\\PS_211.jpg"
        string_val: "E:\\PythonProject\\System\\system\\user_data\\test\\datasets\\NEU-CLS\\train\\Sc\\Sc_18.jpg"
        string_val: "E:\\PythonProject\\System\\system\\user_data\\test\\datasets\\NEU-CLS\\train\\PS\\PS_172.jpg"
        string_val: "E:\\PythonProject\\System\\system\\user_data\\test\\datasets\\NEU-CLS\\train\\In\\In_184.jpg"
        string_val: "E:\\PythonProject\\System\\system\\user_data\\test\\datasets\\NEU-CLS\\train\\Pa\\Pa_45.jpg"
        string_val: "E:\\PythonProject\\System\\system\\user_data\\test\\datasets\\NEU-CLS\\train\\Cr\\Cr_282.jpg"
        string_val: "E:\\PythonProject\\System\\system\\user_data\\test\\datasets\\NEU-CLS\\train\\RS\\RS_178.jpg"
        string_val: "E:\\PythonProject\\System\\system\\user_data\\test\\datasets\\NEU-CLS\\train\\PS\\PS_96.jpg"
        string_val: "E:\\PythonProject\\System\\system\\user_data\\test\\datasets\\NEU-CLS\\train\\PS\\PS_8.jpg"
        string_val: "E:\\PythonProject\\System\\system\\user_data\\test\\datasets\\NEU-CLS\\train\\Sc\\Sc_103.jpg"
        string_val: "E:\\PythonProject\\System\\system\\user_data\\test\\datasets\\NEU-CLS\\train\\Sc\\Sc_249.jpg"
        string_val: "E:\\PythonProject\\System\\system\\user_data\\test\\datasets\\NEU-CLS\\train\\In\\In_121.jpg"
        string_val: "E:\\PythonProject\\System\\system\\user_data\\test\\datasets\\NEU-CLS\\train\\Cr\\Cr_132.jpg"
        string_val: "E:\\PythonProject\\System\\system\\user_data\\test\\datasets\\NEU-CLS\\train\\Sc\\Sc_3.jpg"
        string_val: "E:\\PythonProject\\System\\system\\user_data\\test\\datasets\\NEU-CLS\\train\\PS\\PS_239.jpg"
        string_val: "E:\\PythonProject\\System\\system\\user_data\\test\\datasets\\NEU-CLS\\train\\In\\In_9.jpg"
        string_val: "E:\\PythonProject\\System\\system\\user_data\\test\\datasets\\NEU-CLS\\train\\In\\In_163.jpg"
        string_val: "E:\\PythonProject\\System\\system\\user_data\\test\\datasets\\NEU-CLS\\train\\Sc\\Sc_224.jpg"
        string_val: "E:\\PythonProject\\System\\system\\user_data\\test\\datasets\\NEU-CLS\\train\\PS\\PS_69.jpg"
        string_val: "E:\\PythonProject\\System\\system\\user_data\\test\\datasets\\NEU-CLS\\train\\In\\In_72.jpg"
        string_val: "E:\\PythonProject\\System\\system\\user_data\\test\\datasets\\NEU-CLS\\train\\RS\\RS_117.jpg"
        string_val: "E:\\PythonProject\\System\\system\\user_data\\test\\datasets\\NEU-CLS\\train\\PS\\PS_158.jpg"
        string_val: "E:\\PythonProject\\System\\system\\user_data\\test\\datasets\\NEU-CLS\\train\\Cr\\Cr_129.jpg"
        string_val: "E:\\PythonProject\\System\\system\\user_data\\test\\datasets\\NEU-CLS\\train\\Cr\\Cr_240.jpg"
        string_val: "E:\\PythonProject\\System\\system\\user_data\\test\\datasets\\NEU-CLS\\train\\Pa\\Pa_65.jpg"
        string_val: "E:\\PythonProject\\System\\system\\user_data\\test\\datasets\\NEU-CLS\\train\\In\\In_126.jpg"
        string_val: "E:\\PythonProject\\System\\system\\user_data\\test\\datasets\\NEU-CLS\\train\\In\\In_149.jpg"
        string_val: "E:\\PythonProject\\System\\system\\user_data\\test\\datasets\\NEU-CLS\\train\\Sc\\Sc_109.jpg"
        string_val: "E:\\PythonProject\\System\\system\\user_data\\test\\datasets\\NEU-CLS\\train\\Cr\\Cr_107.jpg"
        string_val: "E:\\PythonProject\\System\\system\\user_data\\test\\datasets\\NEU-CLS\\train\\Cr\\Cr_87.jpg"
        string_val: "E:\\PythonProject\\System\\system\\user_data\\test\\datasets\\NEU-CLS\\train\\Cr\\Cr_120.jpg"
        string_val: "E:\\PythonProject\\System\\system\\user_data\\test\\datasets\\NEU-CLS\\train\\Cr\\Cr_99.jpg"
        string_val: "E:\\PythonProject\\System\\system\\user_data\\test\\datasets\\NEU-CLS\\train\\PS\\PS_94.jpg"
        string_val: "E:\\PythonProject\\System\\system\\user_data\\test\\datasets\\NEU-CLS\\train\\RS\\RS_122.jpg"
        string_val: "E:\\PythonProject\\System\\system\\user_data\\test\\datasets\\NEU-CLS\\train\\Cr\\Cr_92.jpg"
        string_val: "E:\\PythonProject\\System\\system\\user_data\\test\\datasets\\NEU-CLS\\train\\Sc\\Sc_11.jpg"
        string_val: "E:\\PythonProject\\System\\system\\user_data\\test\\datasets\\NEU-CLS\\train\\RS\\RS_240.jpg"
        string_val: "E:\\PythonProject\\System\\system\\user_data\\test\\datasets\\NEU-CLS\\train\\PS\\PS_118.jpg"
        string_val: "E:\\PythonProject\\System\\system\\user_data\\test\\datasets\\NEU-CLS\\train\\Pa\\Pa_158.jpg"
        string_val: "E:\\PythonProject\\System\\system\\user_data\\test\\datasets\\NEU-CLS\\train\\Pa\\Pa_209.jpg"
        string_val: "E:\\PythonProject\\System\\system\\user_data\\test\\datasets\\NEU-CLS\\train\\Sc\\Sc_171.jpg"
        string_val: "E:\\PythonProject\\System\\system\\user_data\\test\\datasets\\NEU-CLS\\train\\Sc\\Sc_96.jpg"
        string_val: "E:\\PythonProject\\System\\system\\user_data\\test\\datasets\\NEU-CLS\\train\\Pa\\Pa_275.jpg"
        string_val: "E:\\PythonProject\\System\\system\\user_data\\test\\datasets\\NEU-CLS\\train\\Sc\\Sc_50.jpg"
        string_val: "E:\\PythonProject\\System\\system\\user_data\\test\\datasets\\NEU-CLS\\train\\RS\\RS_233.jpg"
        string_val: "E:\\PythonProject\\System\\system\\user_data\\test\\datasets\\NEU-CLS\\train\\PS\\PS_182.jpg"
        string_val: "E:\\PythonProject\\System\\system\\user_data\\test\\datasets\\NEU-CLS\\train\\Cr\\Cr_37.jpg"
        string_val: "E:\\PythonProject\\System\\system\\user_data\\test\\datasets\\NEU-CLS\\train\\PS\\PS_165.jpg"
        string_val: "E:\\PythonProject\\System\\system\\user_data\\test\\datasets\\NEU-CLS\\train\\RS\\RS_229.jpg"
        string_val: "E:\\PythonProject\\System\\system\\user_data\\test\\datasets\\NEU-CLS\\train\\Pa\\Pa_121.jpg"
        string_val: "E:\\PythonProject\\System\\system\\user_data\\test\\datasets\\NEU-CLS\\train\\In\\In_178.jpg"
        string_val: "E:\\PythonProject\\System\\system\\user_data\\test\\datasets\\NEU-CLS\\train\\Pa\\Pa_164.jpg"
        string_val: "E:\\PythonProject\\System\\system\\user_data\\test\\datasets\\NEU-CLS\\train\\RS\\RS_17.jpg"
        string_val: "E:\\PythonProject\\System\\system\\user_data\\test\\datasets\\NEU-CLS\\train\\Pa\\Pa_126.jpg"
        string_val: "E:\\PythonProject\\System\\system\\user_data\\test\\datasets\\NEU-CLS\\train\\In\\In_26.jpg"
        string_val: "E:\\PythonProject\\System\\system\\user_data\\test\\datasets\\NEU-CLS\\train\\Pa\\Pa_265.jpg"
        string_val: "E:\\PythonProject\\System\\system\\user_data\\test\\datasets\\NEU-CLS\\train\\PS\\PS_262.jpg"
        string_val: "E:\\PythonProject\\System\\system\\user_data\\test\\datasets\\NEU-CLS\\train\\RS\\RS_209.jpg"
        string_val: "E:\\PythonProject\\System\\system\\user_data\\test\\datasets\\NEU-CLS\\train\\Sc\\Sc_244.jpg"
        string_val: "E:\\PythonProject\\System\\system\\user_data\\test\\datasets\\NEU-CLS\\train\\Sc\\Sc_278.jpg"
        string_val: "E:\\PythonProject\\System\\system\\user_data\\test\\datasets\\NEU-CLS\\train\\RS\\RS_231.jpg"
        string_val: "E:\\PythonProject\\System\\system\\user_data\\test\\datasets\\NEU-CLS\\train\\Sc\\Sc_271.jpg"
        string_val: "E:\\PythonProject\\System\\system\\user_data\\test\\datasets\\NEU-CLS\\train\\PS\\PS_92.jpg"
        string_val: "E:\\PythonProject\\System\\system\\user_data\\test\\datasets\\NEU-CLS\\train\\Sc\\Sc_37.jpg"
        string_val: "E:\\PythonProject\\System\\system\\user_data\\test\\datasets\\NEU-CLS\\train\\In\\In_240.jpg"
        string_val: "E:\\PythonProject\\System\\system\\user_data\\test\\datasets\\NEU-CLS\\train\\PS\\PS_69.jpg"
        string_val: "E:\\PythonProject\\System\\system\\user_data\\test\\datasets\\NEU-CLS\\train\\In\\In_261.jpg"
        string_val: "E:\\PythonProject\\System\\system\\user_data\\test\\datasets\\NEU-CLS\\train\\PS\\PS_15.jpg"
        string_val: "E:\\PythonProject\\System\\system\\user_data\\test\\datasets\\NEU-CLS\\train\\In\\In_92.jpg"
        string_val: "E:\\PythonProject\\System\\system\\user_data\\test\\datasets\\NEU-CLS\\train\\In\\In_105.jpg"
        string_val: "E:\\PythonProject\\System\\system\\user_data\\test\\datasets\\NEU-CLS\\train\\Cr\\Cr_228.jpg"
        string_val: "E:\\PythonProject\\System\\system\\user_data\\test\\datasets\\NEU-CLS\\train\\PS\\PS_16.jpg"
        string_val: "E:\\PythonProject\\System\\system\\user_data\\test\\datasets\\NEU-CLS\\train\\RS\\RS_286.jpg"
        string_val: "E:\\PythonProject\\System\\system\\user_data\\test\\datasets\\NEU-CLS\\train\\Cr\\Cr_12.jpg"
        string_val: "E:\\PythonProject\\System\\system\\user_data\\test\\datasets\\NEU-CLS\\train\\RS\\RS_110.jpg"
        string_val: "E:\\PythonProject\\System\\system\\user_data\\test\\datasets\\NEU-CLS\\train\\Sc\\Sc_162.jpg"
        string_val: "E:\\PythonProject\\System\\system\\user_data\\test\\datasets\\NEU-CLS\\train\\Sc\\Sc_106.jpg"
        string_val: "E:\\PythonProject\\System\\system\\user_data\\test\\datasets\\NEU-CLS\\train\\Sc\\Sc_225.jpg"
        string_val: "E:\\PythonProject\\System\\system\\user_data\\test\\datasets\\NEU-CLS\\train\\Cr\\Cr_248.jpg"
        string_val: "E:\\PythonProject\\System\\system\\user_data\\test\\datasets\\NEU-CLS\\train\\Cr\\Cr_273.jpg"
        string_val: "E:\\PythonProject\\System\\system\\user_data\\test\\datasets\\NEU-CLS\\train\\Cr\\Cr_35.jpg"
        string_val: "E:\\PythonProject\\System\\system\\user_data\\test\\datasets\\NEU-CLS\\train\\Sc\\Sc_174.jpg"
        string_val: "E:\\PythonProject\\System\\system\\user_data\\test\\datasets\\NEU-CLS\\train\\RS\\RS_240.jpg"
        string_val: "E:\\PythonProject\\System\\system\\user_data\\test\\datasets\\NEU-CLS\\train\\RS\\RS_248.jpg"
        string_val: "E:\\PythonProject\\System\\system\\user_data\\test\\datasets\\NEU-CLS\\train\\PS\\PS_263.jpg"
        string_val: "E:\\PythonProject\\System\\system\\user_data\\test\\datasets\\NEU-CLS\\train\\Pa\\Pa_150.jpg"
        string_val: "E:\\PythonProject\\System\\system\\user_data\\test\\datasets\\NEU-CLS\\train\\Sc\\Sc_31.jpg"
        string_val: "E:\\PythonProject\\System\\system\\user_data\\test\\datasets\\NEU-CLS\\train\\Pa\\Pa_57.jpg"
        string_val: "E:\\PythonProject\\System\\system\\user_data\\test\\datasets\\NEU-CLS\\train\\Pa\\Pa_93.jpg"
        string_val: "E:\\PythonProject\\System\\system\\user_data\\test\\datasets\\NEU-CLS\\train\\Sc\\Sc_75.jpg"
        string_val: "E:\\PythonProject\\System\\system\\user_data\\test\\datasets\\NEU-CLS\\train\\Pa\\Pa_76.jpg"
        string_val: "E:\\PythonProject\\System\\system\\user_data\\test\\datasets\\NEU-CLS\\train\\PS\\PS_74.jpg"
        string_val: "E:\\PythonProject\\System\\system\\user_data\\test\\datasets\\NEU-CLS\\train\\RS\\RS_82.jpg"
        string_val: "E:\\PythonProject\\System\\system\\user_data\\test\\datasets\\NEU-CLS\\train\\Pa\\Pa_283.jpg"
        string_val: "E:\\PythonProject\\System\\system\\user_data\\test\\datasets\\NEU-CLS\\train\\RS\\RS_41.jpg"
        string_val: "E:\\PythonProject\\System\\system\\user_data\\test\\datasets\\NEU-CLS\\train\\Sc\\Sc_27.jpg"
        string_val: "E:\\PythonProject\\System\\system\\user_data\\test\\datasets\\NEU-CLS\\train\\In\\In_16.jpg"
        string_val: "E:\\PythonProject\\System\\system\\user_data\\test\\datasets\\NEU-CLS\\train\\Pa\\Pa_85.jpg"
        string_val: "E:\\PythonProject\\System\\system\\user_data\\test\\datasets\\NEU-CLS\\train\\Sc\\Sc_281.jpg"
        string_val: "E:\\PythonProject\\System\\system\\user_data\\test\\datasets\\NEU-CLS\\train\\RS\\RS_28.jpg"
        string_val: "E:\\PythonProject\\System\\system\\user_data\\test\\datasets\\NEU-CLS\\train\\In\\In_146.jpg"
        string_val: "E:\\PythonProject\\System\\system\\user_data\\test\\datasets\\NEU-CLS\\train\\In\\In_123.jpg"
        string_val: "E:\\PythonProject\\System\\system\\user_data\\test\\datasets\\NEU-CLS\\train\\In\\In_196.jpg"
        string_val: "E:\\PythonProject\\System\\system\\user_data\\test\\datasets\\NEU-CLS\\train\\RS\\RS_258.jpg"
        string_val: "E:\\PythonProject\\System\\system\\user_data\\test\\datasets\\NEU-CLS\\train\\Cr\\Cr_103.jpg"
        string_val: "E:\\PythonProject\\System\\system\\user_data\\test\\datasets\\NEU-CLS\\train\\Sc\\Sc_283.jpg"
        string_val: "E:\\PythonProject\\System\\system\\user_data\\test\\datasets\\NEU-CLS\\train\\Sc\\Sc_107.jpg"
        string_val: "E:\\PythonProject\\System\\system\\user_data\\test\\datasets\\NEU-CLS\\train\\Pa\\Pa_297.jpg"
        string_val: "E:\\PythonProject\\System\\system\\user_data\\test\\datasets\\NEU-CLS\\train\\RS\\RS_42.jpg"
        string_val: "E:\\PythonProject\\System\\system\\user_data\\test\\datasets\\NEU-CLS\\train\\PS\\PS_160.jpg"
        string_val: "E:\\PythonProject\\System\\system\\user_data\\test\\datasets\\NEU-CLS\\train\\Cr\\Cr_225.jpg"
        string_val: "E:\\PythonProject\\System\\system\\user_data\\test\\datasets\\NEU-CLS\\train\\Pa\\Pa_262.jpg"
        string_val: "E:\\PythonProject\\System\\system\\user_data\\test\\datasets\\NEU-CLS\\train\\RS\\RS_13.jpg"
        string_val: "E:\\PythonProject\\System\\system\\user_data\\test\\datasets\\NEU-CLS\\train\\PS\\PS_129.jpg"
        string_val: "E:\\PythonProject\\System\\system\\user_data\\test\\datasets\\NEU-CLS\\train\\RS\\RS_69.jpg"
        string_val: "E:\\PythonProject\\System\\system\\user_data\\test\\datasets\\NEU-CLS\\train\\RS\\RS_214.jpg"
        string_val: "E:\\PythonProject\\System\\system\\user_data\\test\\datasets\\NEU-CLS\\train\\Sc\\Sc_55.jpg"
        string_val: "E:\\PythonProject\\System\\system\\user_data\\test\\datasets\\NEU-CLS\\train\\In\\In_20.jpg"
        string_val: "E:\\PythonProject\\System\\system\\user_data\\test\\datasets\\NEU-CLS\\train\\Sc\\Sc_95.jpg"
        string_val: "E:\\PythonProject\\System\\system\\user_data\\test\\datasets\\NEU-CLS\\train\\PS\\PS_149.jpg"
        string_val: "E:\\PythonProject\\System\\system\\user_data\\test\\datasets\\NEU-CLS\\train\\RS\\RS_92.jpg"
        string_val: "E:\\PythonProject\\System\\system\\user_data\\test\\datasets\\NEU-CLS\\train\\PS\\PS_268.jpg"
        string_val: "E:\\PythonProject\\System\\system\\user_data\\test\\datasets\\NEU-CLS\\train\\Cr\\Cr_221.jpg"
        string_val: "E:\\PythonProject\\System\\system\\user_data\\test\\datasets\\NEU-CLS\\train\\RS\\RS_109.jpg"
        string_val: "E:\\PythonProject\\System\\system\\user_data\\test\\datasets\\NEU-CLS\\train\\Sc\\Sc_160.jpg"
        string_val: "E:\\PythonProject\\System\\system\\user_data\\test\\datasets\\NEU-CLS\\train\\Pa\\Pa_128.jpg"
        string_val: "E:\\PythonProject\\System\\system\\user_data\\test\\datasets\\NEU-CLS\\train\\In\\In_77.jpg"
        string_val: "E:\\PythonProject\\System\\system\\user_data\\test\\datasets\\NEU-CLS\\train\\In\\In_240.jpg"
        string_val: "E:\\PythonProject\\System\\system\\user_data\\test\\datasets\\NEU-CLS\\train\\RS\\RS_96.jpg"
        string_val: "E:\\PythonProject\\System\\system\\user_data\\test\\datasets\\NEU-CLS\\train\\Cr\\Cr_241.jpg"
        string_val: "E:\\PythonProject\\System\\system\\user_data\\test\\datasets\\NEU-CLS\\train\\Pa\\Pa_34.jpg"
        string_val: "E:\\PythonProject\\System\\system\\user_data\\test\\datasets\\NEU-CLS\\train\\Sc\\Sc_64.jpg"
        string_val: "E:\\PythonProject\\System\\system\\user_data\\test\\datasets\\NEU-CLS\\train\\RS\\RS_137.jpg"
        string_val: "E:\\PythonProject\\System\\system\\user_data\\test\\datasets\\NEU-CLS\\train\\Sc\\Sc_65.jpg"
        string_val: "E:\\PythonProject\\System\\system\\user_data\\test\\datasets\\NEU-CLS\\train\\In\\In_262.jpg"
        string_val: "E:\\PythonProject\\System\\system\\user_data\\test\\datasets\\NEU-CLS\\train\\RS\\RS_86.jpg"
        string_val: "E:\\PythonProject\\System\\system\\user_data\\test\\datasets\\NEU-CLS\\train\\Sc\\Sc_246.jpg"
        string_val: "E:\\PythonProject\\System\\system\\user_data\\test\\datasets\\NEU-CLS\\train\\RS\\RS_267.jpg"
        string_val: "E:\\PythonProject\\System\\system\\user_data\\test\\datasets\\NEU-CLS\\train\\In\\In_10.jpg"
        string_val: "E:\\PythonProject\\System\\system\\user_data\\test\\datasets\\NEU-CLS\\train\\PS\\PS_3.jpg"
        string_val: "E:\\PythonProject\\System\\system\\user_data\\test\\datasets\\NEU-CLS\\train\\Pa\\Pa_183.jpg"
        string_val: "E:\\PythonProject\\System\\system\\user_data\\test\\datasets\\NEU-CLS\\train\\PS\\PS_290.jpg"
        string_val: "E:\\PythonProject\\System\\system\\user_data\\test\\datasets\\NEU-CLS\\train\\Sc\\Sc_44.jpg"
        string_val: "E:\\PythonProject\\System\\system\\user_data\\test\\datasets\\NEU-CLS\\train\\In\\In_161.jpg"
        string_val: "E:\\PythonProject\\System\\system\\user_data\\test\\datasets\\NEU-CLS\\train\\PS\\PS_188.jpg"
        string_val: "E:\\PythonProject\\System\\system\\user_data\\test\\datasets\\NEU-CLS\\train\\PS\\PS_298.jpg"
        string_val: "E:\\PythonProject\\System\\system\\user_data\\test\\datasets\\NEU-CLS\\train\\Pa\\Pa_58.jpg"
        string_val: "E:\\PythonProject\\System\\system\\user_data\\test\\datasets\\NEU-CLS\\train\\Pa\\Pa_31.jpg"
        string_val: "E:\\PythonProject\\System\\system\\user_data\\test\\datasets\\NEU-CLS\\train\\Pa\\Pa_189.jpg"
        string_val: "E:\\PythonProject\\System\\system\\user_data\\test\\datasets\\NEU-CLS\\train\\RS\\RS_113.jpg"
        string_val: "E:\\PythonProject\\System\\system\\user_data\\test\\datasets\\NEU-CLS\\train\\RS\\RS_48.jpg"
        string_val: "E:\\PythonProject\\System\\system\\user_data\\test\\datasets\\NEU-CLS\\train\\Sc\\Sc_287.jpg"
        string_val: "E:\\PythonProject\\System\\system\\user_data\\test\\datasets\\NEU-CLS\\train\\Cr\\Cr_136.jpg"
        string_val: "E:\\PythonProject\\System\\system\\user_data\\test\\datasets\\NEU-CLS\\train\\RS\\RS_123.jpg"
        string_val: "E:\\PythonProject\\System\\system\\user_data\\test\\datasets\\NEU-CLS\\train\\PS\\PS_50.jpg"
        string_val: "E:\\PythonProject\\System\\system\\user_data\\test\\datasets\\NEU-CLS\\train\\PS\\PS_222.jpg"
        string_val: "E:\\PythonProject\\System\\system\\user_data\\test\\datasets\\NEU-CLS\\train\\Sc\\Sc_223.jpg"
        string_val: "E:\\PythonProject\\System\\system\\user_data\\test\\datasets\\NEU-CLS\\train\\RS\\RS_25.jpg"
        string_val: "E:\\PythonProject\\System\\system\\user_data\\test\\datasets\\NEU-CLS\\train\\Cr\\Cr_152.jpg"
        string_val: "E:\\PythonProject\\System\\system\\user_data\\test\\datasets\\NEU-CLS\\train\\In\\In_44.jpg"
        string_val: "E:\\PythonProject\\System\\system\\user_data\\test\\datasets\\NEU-CLS\\train\\RS\\RS_176.jpg"
        string_val: "E:\\PythonProject\\System\\system\\user_data\\test\\datasets\\NEU-CLS\\train\\Pa\\Pa_91.jpg"
        string_val: "E:\\PythonProject\\System\\system\\user_data\\test\\datasets\\NEU-CLS\\train\\Sc\\Sc_42.jpg"
        string_val: "E:\\PythonProject\\System\\system\\user_data\\test\\datasets\\NEU-CLS\\train\\RS\\RS_279.jpg"
        string_val: "E:\\PythonProject\\System\\system\\user_data\\test\\datasets\\NEU-CLS\\train\\Sc\\Sc_29.jpg"
        string_val: "E:\\PythonProject\\System\\system\\user_data\\test\\datasets\\NEU-CLS\\train\\Pa\\Pa_287.jpg"
        string_val: "E:\\PythonProject\\System\\system\\user_data\\test\\datasets\\NEU-CLS\\train\\PS\\PS_235.jpg"
        string_val: "E:\\PythonProject\\System\\system\\user_data\\test\\datasets\\NEU-CLS\\train\\In\\In_4.jpg"
        string_val: "E:\\PythonProject\\System\\system\\user_data\\test\\datasets\\NEU-CLS\\train\\In\\In_267.jpg"
        string_val: "E:\\PythonProject\\System\\system\\user_data\\test\\datasets\\NEU-CLS\\train\\In\\In_118.jpg"
        string_val: "E:\\PythonProject\\System\\system\\user_data\\test\\datasets\\NEU-CLS\\train\\Cr\\Cr_100.jpg"
        string_val: "E:\\PythonProject\\System\\system\\user_data\\test\\datasets\\NEU-CLS\\train\\RS\\RS_55.jpg"
        string_val: "E:\\PythonProject\\System\\system\\user_data\\test\\datasets\\NEU-CLS\\train\\Cr\\Cr_16.jpg"
        string_val: "E:\\PythonProject\\System\\system\\user_data\\test\\datasets\\NEU-CLS\\train\\Sc\\Sc_147.jpg"
        string_val: "E:\\PythonProject\\System\\system\\user_data\\test\\datasets\\NEU-CLS\\train\\In\\In_191.jpg"
        string_val: "E:\\PythonProject\\System\\system\\user_data\\test\\datasets\\NEU-CLS\\train\\Sc\\Sc_178.jpg"
        string_val: "E:\\PythonProject\\System\\system\\user_data\\test\\datasets\\NEU-CLS\\train\\In\\In_253.jpg"
        string_val: "E:\\PythonProject\\System\\system\\user_data\\test\\datasets\\NEU-CLS\\train\\RS\\RS_203.jpg"
        string_val: "E:\\PythonProject\\System\\system\\user_data\\test\\datasets\\NEU-CLS\\train\\Pa\\Pa_296.jpg"
        string_val: "E:\\PythonProject\\System\\system\\user_data\\test\\datasets\\NEU-CLS\\train\\Cr\\Cr_85.jpg"
        string_val: "E:\\PythonProject\\System\\system\\user_data\\test\\datasets\\NEU-CLS\\train\\Pa\\Pa_179.jpg"
        string_val: "E:\\PythonProject\\System\\system\\user_data\\test\\datasets\\NEU-CLS\\train\\Cr\\Cr_104.jpg"
        string_val: "E:\\PythonProject\\System\\system\\user_data\\test\\datasets\\NEU-CLS\\train\\RS\\RS_29.jpg"
        string_val: "E:\\PythonProject\\System\\system\\user_data\\test\\datasets\\NEU-CLS\\train\\In\\In_272.jpg"
        string_val: "E:\\PythonProject\\System\\system\\user_data\\test\\datasets\\NEU-CLS\\train\\In\\In_72.jpg"
        string_val: "E:\\PythonProject\\System\\system\\user_data\\test\\datasets\\NEU-CLS\\train\\PS\\PS_180.jpg"
        string_val: "E:\\PythonProject\\System\\system\\user_data\\test\\datasets\\NEU-CLS\\train\\Pa\\Pa_177.jpg"
        string_val: "E:\\PythonProject\\System\\system\\user_data\\test\\datasets\\NEU-CLS\\train\\Pa\\Pa_295.jpg"
        string_val: "E:\\PythonProject\\System\\system\\user_data\\test\\datasets\\NEU-CLS\\train\\Sc\\Sc_242.jpg"
        string_val: "E:\\PythonProject\\System\\system\\user_data\\test\\datasets\\NEU-CLS\\train\\In\\In_288.jpg"
        string_val: "E:\\PythonProject\\System\\system\\user_data\\test\\datasets\\NEU-CLS\\train\\Pa\\Pa_277.jpg"
        string_val: "E:\\PythonProject\\System\\system\\user_data\\test\\datasets\\NEU-CLS\\train\\Cr\\Cr_190.jpg"
        string_val: "E:\\PythonProject\\System\\system\\user_data\\test\\datasets\\NEU-CLS\\train\\Pa\\Pa_82.jpg"
        string_val: "E:\\PythonProject\\System\\system\\user_data\\test\\datasets\\NEU-CLS\\train\\Cr\\Cr_224.jpg"
        string_val: "E:\\PythonProject\\System\\system\\user_data\\test\\datasets\\NEU-CLS\\train\\PS\\PS_83.jpg"
        string_val: "E:\\PythonProject\\System\\system\\user_data\\test\\datasets\\NEU-CLS\\train\\Pa\\Pa_133.jpg"
        string_val: "E:\\PythonProject\\System\\system\\user_data\\test\\datasets\\NEU-CLS\\train\\PS\\PS_6.jpg"
        string_val: "E:\\PythonProject\\System\\system\\user_data\\test\\datasets\\NEU-CLS\\train\\PS\\PS_168.jpg"
        string_val: "E:\\PythonProject\\System\\system\\user_data\\test\\datasets\\NEU-CLS\\train\\Sc\\Sc_110.jpg"
        string_val: "E:\\PythonProject\\System\\system\\user_data\\test\\datasets\\NEU-CLS\\train\\Cr\\Cr_127.jpg"
        string_val: "E:\\PythonProject\\System\\system\\user_data\\test\\datasets\\NEU-CLS\\train\\Cr\\Cr_245.jpg"
        string_val: "E:\\PythonProject\\System\\system\\user_data\\test\\datasets\\NEU-CLS\\train\\PS\\PS_259.jpg"
        string_val: "E:\\PythonProject\\System\\system\\user_data\\test\\datasets\\NEU-CLS\\train\\PS\\PS_165.jpg"
        string_val: "E:\\PythonProject\\System\\system\\user_data\\test\\datasets\\NEU-CLS\\train\\PS\\PS_190.jpg"
        string_val: "E:\\PythonProject\\System\\system\\user_data\\test\\datasets\\NEU-CLS\\train\\PS\\PS_125.jpg"
        string_val: "E:\\PythonProject\\System\\system\\user_data\\test\\datasets\\NEU-CLS\\train\\In\\In_213.jpg"
        string_val: "E:\\PythonProject\\System\\system\\user_data\\test\\datasets\\NEU-CLS\\train\\Pa\\Pa_2.jpg"
        string_val: "E:\\PythonProject\\System\\system\\user_data\\test\\datasets\\NEU-CLS\\train\\Cr\\Cr_10.jpg"
        string_val: "E:\\PythonProject\\System\\system\\user_data\\test\\datasets\\NEU-CLS\\train\\Cr\\Cr_69.jpg"
        string_val: "E:\\PythonProject\\System\\system\\user_data\\test\\datasets\\NEU-CLS\\train\\Sc\\Sc_59.jpg"
        string_val: "E:\\PythonProject\\System\\system\\user_data\\test\\datasets\\NEU-CLS\\train\\PS\\PS_190.jpg"
        string_val: "E:\\PythonProject\\System\\system\\user_data\\test\\datasets\\NEU-CLS\\train\\RS\\RS_131.jpg"
        string_val: "E:\\PythonProject\\System\\system\\user_data\\test\\datasets\\NEU-CLS\\train\\Cr\\Cr_193.jpg"
        string_val: "E:\\PythonProject\\System\\system\\user_data\\test\\datasets\\NEU-CLS\\train\\Sc\\Sc_36.jpg"
        string_val: "E:\\PythonProject\\System\\system\\user_data\\test\\datasets\\NEU-CLS\\train\\In\\In_38.jpg"
        string_val: "E:\\PythonProject\\System\\system\\user_data\\test\\datasets\\NEU-CLS\\train\\In\\In_286.jpg"
        string_val: "E:\\PythonProject\\System\\system\\user_data\\test\\datasets\\NEU-CLS\\train\\RS\\RS_225.jpg"
        string_val: "E:\\PythonProject\\System\\system\\user_data\\test\\datasets\\NEU-CLS\\train\\In\\In_287.jpg"
        string_val: "E:\\PythonProject\\System\\system\\user_data\\test\\datasets\\NEU-CLS\\train\\Cr\\Cr_210.jpg"
        string_val: "E:\\PythonProject\\System\\system\\user_data\\test\\datasets\\NEU-CLS\\train\\PS\\PS_36.jpg"
        string_val: "E:\\PythonProject\\System\\system\\user_data\\test\\datasets\\NEU-CLS\\train\\Sc\\Sc_190.jpg"
        string_val: "E:\\PythonProject\\System\\system\\user_data\\test\\datasets\\NEU-CLS\\train\\PS\\PS_30.jpg"
        string_val: "E:\\PythonProject\\System\\system\\user_data\\test\\datasets\\NEU-CLS\\train\\Pa\\Pa_188.jpg"
        string_val: "E:\\PythonProject\\System\\system\\user_data\\test\\datasets\\NEU-CLS\\train\\RS\\RS_112.jpg"
        string_val: "E:\\PythonProject\\System\\system\\user_data\\test\\datasets\\NEU-CLS\\train\\Sc\\Sc_164.jpg"
        string_val: "E:\\PythonProject\\System\\system\\user_data\\test\\datasets\\NEU-CLS\\train\\PS\\PS_130.jpg"
        string_val: "E:\\PythonProject\\System\\system\\user_data\\test\\datasets\\NEU-CLS\\train\\PS\\PS_61.jpg"
        string_val: "E:\\PythonProject\\System\\system\\user_data\\test\\datasets\\NEU-CLS\\train\\In\\In_249.jpg"
        string_val: "E:\\PythonProject\\System\\system\\user_data\\test\\datasets\\NEU-CLS\\train\\In\\In_63.jpg"
        string_val: "E:\\PythonProject\\System\\system\\user_data\\test\\datasets\\NEU-CLS\\train\\PS\\PS_202.jpg"
        string_val: "E:\\PythonProject\\System\\system\\user_data\\test\\datasets\\NEU-CLS\\train\\PS\\PS_196.jpg"
        string_val: "E:\\PythonProject\\System\\system\\user_data\\test\\datasets\\NEU-CLS\\train\\PS\\PS_33.jpg"
        string_val: "E:\\PythonProject\\System\\system\\user_data\\test\\datasets\\NEU-CLS\\train\\In\\In_122.jpg"
        string_val: "E:\\PythonProject\\System\\system\\user_data\\test\\datasets\\NEU-CLS\\train\\Pa\\Pa_218.jpg"
        string_val: "E:\\PythonProject\\System\\system\\user_data\\test\\datasets\\NEU-CLS\\train\\PS\\PS_201.jpg"
        string_val: "E:\\PythonProject\\System\\system\\user_data\\test\\datasets\\NEU-CLS\\train\\PS\\PS_51.jpg"
        string_val: "E:\\PythonProject\\System\\system\\user_data\\test\\datasets\\NEU-CLS\\train\\In\\In_238.jpg"
        string_val: "E:\\PythonProject\\System\\system\\user_data\\test\\datasets\\NEU-CLS\\train\\Cr\\Cr_234.jpg"
        string_val: "E:\\PythonProject\\System\\system\\user_data\\test\\datasets\\NEU-CLS\\train\\Cr\\Cr_260.jpg"
        string_val: "E:\\PythonProject\\System\\system\\user_data\\test\\datasets\\NEU-CLS\\train\\Sc\\Sc_264.jpg"
        string_val: "E:\\PythonProject\\System\\system\\user_data\\test\\datasets\\NEU-CLS\\train\\Cr\\Cr_22.jpg"
        string_val: "E:\\PythonProject\\System\\system\\user_data\\test\\datasets\\NEU-CLS\\train\\Pa\\Pa_134.jpg"
        string_val: "E:\\PythonProject\\System\\system\\user_data\\test\\datasets\\NEU-CLS\\train\\Pa\\Pa_141.jpg"
        string_val: "E:\\PythonProject\\System\\system\\user_data\\test\\datasets\\NEU-CLS\\train\\In\\In_7.jpg"
        string_val: "E:\\PythonProject\\System\\system\\user_data\\test\\datasets\\NEU-CLS\\train\\RS\\RS_130.jpg"
        string_val: "E:\\PythonProject\\System\\system\\user_data\\test\\datasets\\NEU-CLS\\train\\PS\\PS_111.jpg"
        string_val: "E:\\PythonProject\\System\\system\\user_data\\test\\datasets\\NEU-CLS\\train\\Pa\\Pa_219.jpg"
        string_val: "E:\\PythonProject\\System\\system\\user_data\\test\\datasets\\NEU-CLS\\train\\Cr\\Cr_64.jpg"
        string_val: "E:\\PythonProject\\System\\system\\user_data\\test\\datasets\\NEU-CLS\\train\\Sc\\Sc_169.jpg"
        string_val: "E:\\PythonProject\\System\\system\\user_data\\test\\datasets\\NEU-CLS\\train\\In\\In_298.jpg"
        string_val: "E:\\PythonProject\\System\\system\\user_data\\test\\datasets\\NEU-CLS\\train\\Pa\\Pa_244.jpg"
        string_val: "E:\\PythonProject\\System\\system\\user_data\\test\\datasets\\NEU-CLS\\train\\In\\In_117.jpg"
        string_val: "E:\\PythonProject\\System\\system\\user_data\\test\\datasets\\NEU-CLS\\train\\PS\\PS_253.jpg"
        string_val: "E:\\PythonProject\\System\\system\\user_data\\test\\datasets\\NEU-CLS\\train\\RS\\RS_198.jpg"
        string_val: "E:\\PythonProject\\System\\system\\user_data\\test\\datasets\\NEU-CLS\\train\\Cr\\Cr_149.jpg"
        string_val: "E:\\PythonProject\\System\\system\\user_data\\test\\datasets\\NEU-CLS\\train\\Cr\\Cr_95.jpg"
        string_val: "E:\\PythonProject\\System\\system\\user_data\\test\\datasets\\NEU-CLS\\train\\In\\In_199.jpg"
        string_val: "E:\\PythonProject\\System\\system\\user_data\\test\\datasets\\NEU-CLS\\train\\Pa\\Pa_148.jpg"
        string_val: "E:\\PythonProject\\System\\system\\user_data\\test\\datasets\\NEU-CLS\\train\\Pa\\Pa_281.jpg"
        string_val: "E:\\PythonProject\\System\\system\\user_data\\test\\datasets\\NEU-CLS\\train\\PS\\PS_276.jpg"
        string_val: "E:\\PythonProject\\System\\system\\user_data\\test\\datasets\\NEU-CLS\\train\\Cr\\Cr_180.jpg"
        string_val: "E:\\PythonProject\\System\\system\\user_data\\test\\datasets\\NEU-CLS\\train\\Cr\\Cr_237.jpg"
        string_val: "E:\\PythonProject\\System\\system\\user_data\\test\\datasets\\NEU-CLS\\train\\Sc\\Sc_180.jpg"
        string_val: "E:\\PythonProject\\System\\system\\user_data\\test\\datasets\\NEU-CLS\\train\\In\\In_61.jpg"
        string_val: "E:\\PythonProject\\System\\system\\user_data\\test\\datasets\\NEU-CLS\\train\\Sc\\Sc_173.jpg"
        string_val: "E:\\PythonProject\\System\\system\\user_data\\test\\datasets\\NEU-CLS\\train\\RS\\RS_174.jpg"
        string_val: "E:\\PythonProject\\System\\system\\user_data\\test\\datasets\\NEU-CLS\\train\\Pa\\Pa_79.jpg"
        string_val: "E:\\PythonProject\\System\\system\\user_data\\test\\datasets\\NEU-CLS\\train\\PS\\PS_39.jpg"
        string_val: "E:\\PythonProject\\System\\system\\user_data\\test\\datasets\\NEU-CLS\\train\\Sc\\Sc_184.jpg"
        string_val: "E:\\PythonProject\\System\\system\\user_data\\test\\datasets\\NEU-CLS\\train\\PS\\PS_24.jpg"
…
  name: "save/Identity_29"
  op: "Identity"
  input: "save/RestoreV2:28"
  attr {
    key: "T"
    value {
      type: DT_FLOAT
    }
  }
  attr {
    key: "_output_shapes"
    value {
      list {
        shape {
          unknown_rank: true
        }
      }
    }
  }
}
node {
  name: "save/AssignVariableOp_28"
  op: "AssignVariableOp"
  input: "block3_conv1/bias/Adam_1"
  input: "save/Identity_29"
  attr {
    key: "dtype"
    value {
      type: DT_FLOAT
    }
  }
}
node {
  name: "save/Identity_30"
  op: "Identity"
  input: "save/RestoreV2:29"
  attr {
    key: "T"
    value {
      type: DT_FLOAT
    }
  }
  attr {
    key: "_output_shapes"
    value {
      list {
        shape {
          unknown_rank: true
        }
      }
    }
  }
}
node {
  name: "save/AssignVariableOp_29"
  op: "AssignVariableOp"
  input: "block3_conv1/kernel"
  input: "save/Identity_30"
  attr {
    key: "dtype"
    value {
      type: DT_FLOAT
    }
  }
}
node {
  name: "save/Identity_31"
  op: "Identity"
  input: "save/RestoreV2:30"
  attr {
    key: "T"
    value {
      type: DT_FLOAT
    }
  }
  attr {
    key: "_output_shapes"
    value {
      list {
        shape {
          unknown_rank: true
        }
      }
    }
  }
}
node {
  name: "save/AssignVariableOp_30"
  op: "AssignVariableOp"
  input: "block3_conv1/kernel/Adam"
  input: "save/Identity_31"
  attr {
    key: "dtype"
    value {
      type: DT_FLOAT
    }
  }
}
node {
  name: "save/Identity_32"
  op: "Identity"
  input: "save/RestoreV2:31"
  attr {
    key: "T"
    value {
      type: DT_FLOAT
    }
  }
  attr {
    key: "_output_shapes"
    value {
      list {
        shape {
          unknown_rank: true
        }
      }
    }
  }
}
node {
  name: "save/AssignVariableOp_31"
  op: "AssignVariableOp"
  input: "block3_conv1/kernel/Adam_1"
  input: "save/Identity_32"
  attr {
    key: "dtype"
    value {
      type: DT_FLOAT
    }
  }
}
node {
  name: "save/Identity_33"
  op: "Identity"
  input: "save/RestoreV2:32"
  attr {
    key: "T"
    value {
      type: DT_FLOAT
    }
  }
  attr {
    key: "_output_shapes"
    value {
      list {
        shape {
          unknown_rank: true
        }
      }
    }
  }
}
node {
  name: "save/AssignVariableOp_32"
  op: "AssignVariableOp"
  input: "block3_conv2/bias"
  input: "save/Identity_33"
  attr {
    key: "dtype"
    value {
      type: DT_FLOAT
    }
  }
}
node {
  name: "save/Identity_34"
  op: "Identity"
  input: "save/RestoreV2:33"
  attr {
    key: "T"
    value {
      type: DT_FLOAT
    }
  }
  attr {
    key: "_output_shapes"
    value {
      list {
        shape {
          unknown_rank: true
        }
      }
    }
  }
}
node {
  name: "save/AssignVariableOp_33"
  op: "AssignVariableOp"
  input: "block3_conv2/bias/Adam"
  input: "save/Identity_34"
  attr {
    key: "dtype"
    value {
      type: DT_FLOAT
    }
  }
}
node {
  name: "save/Identity_35"
  op: "Identity"
  input: "save/RestoreV2:34"
  attr {
    key: "T"
    value {
      type: DT_FLOAT
    }
  }
  attr {
    key: "_output_shapes"
    value {
      list {
        shape {
          unknown_rank: true
        }
      }
    }
  }
}
node {
  name: "save/AssignVariableOp_34"
  op: "AssignVariableOp"
  input: "block3_conv2/bias/Adam_1"
  input: "save/Identity_35"
  attr {
    key: "dtype"
    value {
      type: DT_FLOAT
    }
  }
}
node {
  name: "save/Identity_36"
  op: "Identity"
  input: "save/RestoreV2:35"
  attr {
    key: "T"
    value {
      type: DT_FLOAT
    }
  }
  attr {
    key: "_output_shapes"
    value {
      list {
        shape {
          unknown_rank: true
        }
      }
    }
  }
}
node {
  name: "save/AssignVariableOp_35"
  op: "AssignVariableOp"
  input: "block3_conv2/kernel"
  input: "save/Identity_36"
  attr {
    key: "dtype"
    value {
      type: DT_FLOAT
    }
  }
}
node {
  name: "save/Identity_37"
  op: "Identity"
  input: "save/RestoreV2:36"
  attr {
    key: "T"
    value {
      type: DT_FLOAT
    }
  }
  attr {
    key: "_output_shapes"
    value {
      list {
        shape {
          unknown_rank: true
        }
      }
    }
  }
}
node {
  name: "save/AssignVariableOp_36"
  op: "AssignVariableOp"
  input: "block3_conv2/kernel/Adam"
  input: "save/Identity_37"
  attr {
    key: "dtype"
    value {
      type: DT_FLOAT
    }
  }
}
node {
  name: "save/Identity_38"
  op: "Identity"
  input: "save/RestoreV2:37"
  attr {
    key: "T"
    value {
      type: DT_FLOAT
    }
  }
  attr {
    key: "_output_shapes"
    value {
      list {
        shape {
          unknown_rank: true
        }
      }
    }
  }
}
node {
  name: "save/AssignVariableOp_37"
  op: "AssignVariableOp"
  input: "block3_conv2/kernel/Adam_1"
  input: "save/Identity_38"
  attr {
    key: "dtype"
    value {
      type: DT_FLOAT
    }
  }
}
node {
  name: "save/Identity_39"
  op: "Identity"
  input: "save/RestoreV2:38"
  attr {
    key: "T"
    value {
      type: DT_FLOAT
    }
  }
  attr {
    key: "_output_shapes"
    value {
      list {
        shape {
          unknown_rank: true
        }
      }
    }
  }
}
node {
  name: "save/AssignVariableOp_38"
  op: "AssignVariableOp"
  input: "block3_conv3/bias"
  input: "save/Identity_39"
  attr {
    key: "dtype"
    value {
      type: DT_FLOAT
    }
  }
}
node {
  name: "save/Identity_40"
  op: "Identity"
  input: "save/RestoreV2:39"
  attr {
    key: "T"
    value {
      type: DT_FLOAT
    }
  }
  attr {
    key: "_output_shapes"
    value {
      list {
        shape {
          unknown_rank: true
        }
      }
    }
  }
}
node {
  name: "save/AssignVariableOp_39"
  op: "AssignVariableOp"
  input: "block3_conv3/bias/Adam"
  input: "save/Identity_40"
  attr {
    key: "dtype"
    value {
      type: DT_FLOAT
    }
  }
}
node {
  name: "save/Identity_41"
  op: "Identity"
  input: "save/RestoreV2:40"
  attr {
    key: "T"
    value {
      type: DT_FLOAT
    }
  }
  attr {
    key: "_output_shapes"
    value {
      list {
        shape {
          unknown_rank: true
        }
      }
    }
  }
}
node {
  name: "save/AssignVariableOp_40"
  op: "AssignVariableOp"
  input: "block3_conv3/bias/Adam_1"
  input: "save/Identity_41"
  attr {
    key: "dtype"
    value {
      type: DT_FLOAT
    }
  }
}
node {
  name: "save/Identity_42"
  op: "Identity"
  input: "save/RestoreV2:41"
  attr {
    key: "T"
    value {
      type: DT_FLOAT
    }
  }
  attr {
    key: "_output_shapes"
    value {
      list {
        shape {
          unknown_rank: true
        }
      }
    }
  }
}
node {
  name: "save/AssignVariableOp_41"
  op: "AssignVariableOp"
  input: "block3_conv3/kernel"
  input: "save/Identity_42"
  attr {
    key: "dtype"
    value {
      type: DT_FLOAT
    }
  }
}
node {
  name: "save/Identity_43"
  op: "Identity"
  input: "save/RestoreV2:42"
  attr {
    key: "T"
    value {
      type: DT_FLOAT
    }
  }
  attr {
    key: "_output_shapes"
    value {
      list {
        shape {
          unknown_rank: true
        }
      }
    }
  }
}
node {
  name: "save/AssignVariableOp_42"
  op: "AssignVariableOp"
  input: "block3_conv3/kernel/Adam"
  input: "save/Identity_43"
  attr {
    key: "dtype"
    value {
      type: DT_FLOAT
    }
  }
}
node {
  name: "save/Identity_44"
  op: "Identity"
  input: "save/RestoreV2:43"
  attr {
    key: "T"
    value {
      type: DT_FLOAT
    }
  }
  attr {
    key: "_output_shapes"
    value {
      list {
        shape {
          unknown_rank: true
        }
      }
    }
  }
}
node {
  name: "save/AssignVariableOp_43"
  op: "AssignVariableOp"
  input: "block3_conv3/kernel/Adam_1"
  input: "save/Identity_44"
  attr {
    key: "dtype"
    value {
      type: DT_FLOAT
    }
  }
}
node {
  name: "save/Identity_45"
  op: "Identity"
  input: "save/RestoreV2:44"
  attr {
    key: "T"
    value {
      type: DT_FLOAT
    }
  }
  attr {
    key: "_output_shapes"
    value {
      list {
        shape {
          unknown_rank: true
        }
      }
    }
  }
}
node {
  name: "save/AssignVariableOp_44"
  op: "AssignVariableOp"
  input: "block4_conv1/bias"
  input: "save/Identity_45"
  attr {
    key: "dtype"
    value {
      type: DT_FLOAT
    }
  }
}
node {
  name: "save/Identity_46"
  op: "Identity"
  input: "save/RestoreV2:45"
  attr {
    key: "T"
    value {
      type: DT_FLOAT
    }
  }
  attr {
    key: "_output_shapes"
    value {
      list {
        shape {
          unknown_rank: true
        }
      }
    }
  }
}
node {
  name: "save/AssignVariableOp_45"
  op: "AssignVariableOp"
  input: "block4_conv1/bias/Adam"
  input: "save/Identity_46"
  attr {
    key: "dtype"
    value {
      type: DT_FLOAT
    }
  }
}
node {
  name: "save/Identity_47"
  op: "Identity"
  input: "save/RestoreV2:46"
  attr {
    key: "T"
    value {
      type: DT_FLOAT
    }
  }
  attr {
    key: "_output_shapes"
    value {
      list {
        shape {
          unknown_rank: true
        }
      }
    }
  }
}
node {
  name: "save/AssignVariableOp_46"
  op: "AssignVariableOp"
  input: "block4_conv1/bias/Adam_1"
  input: "save/Identity_47"
  attr {
    key: "dtype"
    value {
      type: DT_FLOAT
    }
  }
}
node {
  name: "save/Identity_48"
  op: "Identity"
  input: "save/RestoreV2:47"
  attr {
    key: "T"
    value {
      type: DT_FLOAT
    }
  }
  attr {
    key: "_output_shapes"
    value {
      list {
        shape {
          unknown_rank: true
        }
      }
    }
  }
}
node {
  name: "save/AssignVariableOp_47"
  op: "AssignVariableOp"
  input: "block4_conv1/kernel"
  input: "save/Identity_48"
  attr {
    key: "dtype"
    value {
      type: DT_FLOAT
    }
  }
}
node {
  name: "save/Identity_49"
  op: "Identity"
  input: "save/RestoreV2:48"
  attr {
    key: "T"
    value {
      type: DT_FLOAT
    }
  }
  attr {
    key: "_output_shapes"
    value {
      list {
        shape {
          unknown_rank: true
        }
      }
    }
  }
}
node {
  name: "save/AssignVariableOp_48"
  op: "AssignVariableOp"
  input: "block4_conv1/kernel/Adam"
  input: "save/Identity_49"
  attr {
    key: "dtype"
    value {
      type: DT_FLOAT
    }
  }
}
node {
  name: "save/Identity_50"
  op: "Identity"
  input: "save/RestoreV2:49"
  attr {
    key: "T"
    value {
      type: DT_FLOAT
    }
  }
  attr {
    key: "_output_shapes"
    value {
      list {
        shape {
          unknown_rank: true
        }
      }
    }
  }
}
node {
  name: "save/AssignVariableOp_49"
  op: "AssignVariableOp"
  input: "block4_conv1/kernel/Adam_1"
  input: "save/Identity_50"
  attr {
    key: "dtype"
    value {
      type: DT_FLOAT
    }
  }
}
node {
  name: "save/Identity_51"
  op: "Identity"
  input: "save/RestoreV2:50"
  attr {
    key: "T"
    value {
      type: DT_FLOAT
    }
  }
  attr {
    key: "_output_shapes"
    value {
      list {
        shape {
          unknown_rank: true
        }
      }
    }
  }
}
node {
  name: "save/AssignVariableOp_50"
  op: "AssignVariableOp"
  input: "block4_conv2/bias"
  input: "save/Identity_51"
  attr {
    key: "dtype"
    value {
      type: DT_FLOAT
    }
  }
}
node {
  name: "save/Identity_52"
  op: "Identity"
  input: "save/RestoreV2:51"
  attr {
    key: "T"
    value {
      type: DT_FLOAT
    }
  }
  attr {
    key: "_output_shapes"
    value {
      list {
        shape {
          unknown_rank: true
        }
      }
    }
  }
}
node {
  name: "save/AssignVariableOp_51"
  op: "AssignVariableOp"
  input: "block4_conv2/bias/Adam"
  input: "save/Identity_52"
  attr {
    key: "dtype"
    value {
      type: DT_FLOAT
    }
  }
}
node {
  name: "save/Identity_53"
  op: "Identity"
  input: "save/RestoreV2:52"
  attr {
    key: "T"
    value {
      type: DT_FLOAT
    }
  }
  attr {
    key: "_output_shapes"
    value {
      list {
        shape {
          unknown_rank: true
        }
      }
    }
  }
}
node {
  name: "save/AssignVariableOp_52"
  op: "AssignVariableOp"
  input: "block4_conv2/bias/Adam_1"
  input: "save/Identity_53"
  attr {
    key: "dtype"
    value {
      type: DT_FLOAT
    }
  }
}
node {
  name: "save/Identity_54"
  op: "Identity"
  input: "save/RestoreV2:53"
  attr {
    key: "T"
    value {
      type: DT_FLOAT
    }
  }
  attr {
    key: "_output_shapes"
    value {
      list {
        shape {
          unknown_rank: true
        }
      }
    }
  }
}
node {
  name: "save/AssignVariableOp_53"
  op: "AssignVariableOp"
  input: "block4_conv2/kernel"
  input: "save/Identity_54"
  attr {
    key: "dtype"
    value {
      type: DT_FLOAT
    }
  }
}
node {
  name: "save/Identity_55"
  op: "Identity"
  input: "save/RestoreV2:54"
  attr {
    key: "T"
    value {
      type: DT_FLOAT
    }
  }
  attr {
    key: "_output_shapes"
    value {
      list {
        shape {
          unknown_rank: true
        }
      }
    }
  }
}
node {
  name: "save/AssignVariableOp_54"
  op: "AssignVariableOp"
  input: "block4_conv2/kernel/Adam"
  input: "save/Identity_55"
  attr {
    key: "dtype"
    value {
      type: DT_FLOAT
    }
  }
}
node {
  name: "save/Identity_56"
  op: "Identity"
  input: "save/RestoreV2:55"
  attr {
    key: "T"
    value {
      type: DT_FLOAT
    }
  }
  attr {
    key: "_output_shapes"
    value {
      list {
        shape {
          unknown_rank: true
        }
      }
    }
  }
}
node {
  name: "save/AssignVariableOp_55"
  op: "AssignVariableOp"
  input: "block4_conv2/kernel/Adam_1"
  input: "save/Identity_56"
  attr {
    key: "dtype"
    value {
      type: DT_FLOAT
    }
  }
}
node {
  name: "save/Identity_57"
  op: "Identity"
  input: "save/RestoreV2:56"
  attr {
    key: "T"
    value {
      type: DT_FLOAT
    }
  }
  attr {
    key: "_output_shapes"
    value {
      list {
        shape {
          unknown_rank: true
        }
      }
    }
  }
}
node {
  name: "save/AssignVariableOp_56"
  op: "AssignVariableOp"
  input: "block4_conv3/bias"
  input: "save/Identity_57"
  attr {
    key: "dtype"
    value {
      type: DT_FLOAT
    }
  }
}
node {
  name: "save/Identity_58"
  op: "Identity"
  input: "save/RestoreV2:57"
  attr {
    key: "T"
    value {
      type: DT_FLOAT
    }
  }
  attr {
    key: "_output_shapes"
    value {
      list {
        shape {
          unknown_rank: true
        }
      }
    }
  }
}
node {
  name: "save/AssignVariableOp_57"
  op: "AssignVariableOp"
  input: "block4_conv3/bias/Adam"
  input: "save/Identity_58"
  attr {
    key: "dtype"
    value {
      type: DT_FLOAT
    }
  }
}
node {
  name: "save/Identity_59"
  op: "Identity"
  input: "save/RestoreV2:58"
  attr {
    key: "T"
    value {
      type: DT_FLOAT
    }
  }
  attr {
    key: "_output_shapes"
    value {
      list {
        shape {
          unknown_rank: true
        }
      }
    }
  }
}
node {
  name: "save/AssignVariableOp_58"
  op: "AssignVariableOp"
  input: "block4_conv3/bias/Adam_1"
  input: "save/Identity_59"
  attr {
    key: "dtype"
    value {
      type: DT_FLOAT
    }
  }
}
node {
  name: "save/Identity_60"
  op: "Identity"
  input: "save/RestoreV2:59"
  attr {
    key: "T"
    value {
      type: DT_FLOAT
    }
  }
  attr {
    key: "_output_shapes"
    value {
      list {
        shape {
          unknown_rank: true
        }
      }
    }
  }
}
node {
  name: "save/AssignVariableOp_59"
  op: "AssignVariableOp"
  input: "block4_conv3/kernel"
  input: "save/Identity_60"
  attr {
    key: "dtype"
    value {
      type: DT_FLOAT
    }
  }
}
node {
  name: "save/Identity_61"
  op: "Identity"
  input: "save/RestoreV2:60"
  attr {
    key: "T"
    value {
      type: DT_FLOAT
    }
  }
  attr {
    key: "_output_shapes"
    value {
      list {
        shape {
          unknown_rank: true
        }
      }
    }
  }
}
node {
  name: "save/AssignVariableOp_60"
  op: "AssignVariableOp"
  input: "block4_conv3/kernel/Adam"
  input: "save/Identity_61"
  attr {
    key: "dtype"
    value {
      type: DT_FLOAT
    }
  }
}
node {
  name: "save/Identity_62"
  op: "Identity"
  input: "save/RestoreV2:61"
  attr {
    key: "T"
    value {
      type: DT_FLOAT
    }
  }
  attr {
    key: "_output_shapes"
    value {
      list {
        shape {
          unknown_rank: true
        }
      }
    }
  }
}
node {
  name: "save/AssignVariableOp_61"
  op: "AssignVariableOp"
  input: "block4_conv3/kernel/Adam_1"
  input: "save/Identity_62"
  attr {
    key: "dtype"
    value {
      type: DT_FLOAT
    }
  }
}
node {
  name: "save/Identity_63"
  op: "Identity"
  input: "save/RestoreV2:62"
  attr {
    key: "T"
    value {
      type: DT_FLOAT
    }
  }
  attr {
    key: "_output_shapes"
    value {
      list {
        shape {
          unknown_rank: true
        }
      }
    }
  }
}
node {
  name: "save/AssignVariableOp_62"
  op: "AssignVariableOp"
  input: "block5_conv1/bias"
  input: "save/Identity_63"
  attr {
    key: "dtype"
    value {
      type: DT_FLOAT
    }
  }
}
node {
  name: "save/Identity_64"
  op: "Identity"
  input: "save/RestoreV2:63"
  attr {
    key: "T"
    value {
      type: DT_FLOAT
    }
  }
  attr {
    key: "_output_shapes"
    value {
      list {
        shape {
          unknown_rank: true
        }
      }
    }
  }
}
node {
  name: "save/AssignVariableOp_63"
  op: "AssignVariableOp"
  input: "block5_conv1/bias/Adam"
  input: "save/Identity_64"
  attr {
    key: "dtype"
    value {
      type: DT_FLOAT
    }
  }
}
node {
  name: "save/Identity_65"
  op: "Identity"
  input: "save/RestoreV2:64"
  attr {
    key: "T"
    value {
      type: DT_FLOAT
    }
  }
  attr {
    key: "_output_shapes"
    value {
      list {
        shape {
          unknown_rank: true
        }
      }
    }
  }
}
node {
  name: "save/AssignVariableOp_64"
  op: "AssignVariableOp"
  input: "block5_conv1/bias/Adam_1"
  input: "save/Identity_65"
  attr {
    key: "dtype"
    value {
      type: DT_FLOAT
    }
  }
}
node {
  name: "save/Identity_66"
  op: "Identity"
  input: "save/RestoreV2:65"
  attr {
    key: "T"
    value {
      type: DT_FLOAT
    }
  }
  attr {
    key: "_output_shapes"
    value {
      list {
        shape {
          unknown_rank: true
        }
      }
    }
  }
}
node {
  name: "save/AssignVariableOp_65"
  op: "AssignVariableOp"
  input: "block5_conv1/kernel"
  input: "save/Identity_66"
  attr {
    key: "dtype"
    value {
      type: DT_FLOAT
    }
  }
}
node {
  name: "save/Identity_67"
  op: "Identity"
  input: "save/RestoreV2:66"
  attr {
    key: "T"
    value {
      type: DT_FLOAT
    }
  }
  attr {
    key: "_output_shapes"
    value {
      list {
        shape {
          unknown_rank: true
        }
      }
    }
  }
}
node {
  name: "save/AssignVariableOp_66"
  op: "AssignVariableOp"
  input: "block5_conv1/kernel/Adam"
  input: "save/Identity_67"
  attr {
    key: "dtype"
    value {
      type: DT_FLOAT
    }
  }
}
node {
  name: "save/Identity_68"
  op: "Identity"
  input: "save/RestoreV2:67"
  attr {
    key: "T"
    value {
      type: DT_FLOAT
    }
  }
  attr {
    key: "_output_shapes"
    value {
      list {
        shape {
          unknown_rank: true
        }
      }
    }
  }
}
node {
  name: "save/AssignVariableOp_67"
  op: "AssignVariableOp"
  input: "block5_conv1/kernel/Adam_1"
  input: "save/Identity_68"
  attr {
    key: "dtype"
    value {
      type: DT_FLOAT
    }
  }
}
node {
  name: "save/Identity_69"
  op: "Identity"
  input: "save/RestoreV2:68"
  attr {
    key: "T"
    value {
      type: DT_FLOAT
    }
  }
  attr {
    key: "_output_shapes"
    value {
      list {
        shape {
          unknown_rank: true
        }
      }
    }
  }
}
node {
  name: "save/AssignVariableOp_68"
  op: "AssignVariableOp"
  input: "block5_conv2/bias"
  input: "save/Identity_69"
  attr {
    key: "dtype"
    value {
      type: DT_FLOAT
    }
  }
}
node {
  name: "save/Identity_70"
  op: "Identity"
  input: "save/RestoreV2:69"
  attr {
    key: "T"
    value {
      type: DT_FLOAT
    }
  }
  attr {
    key: "_output_shapes"
    value {
      list {
        shape {
          unknown_rank: true
        }
      }
    }
  }
}
node {
  name: "save/AssignVariableOp_69"
  op: "AssignVariableOp"
  input: "block5_conv2/bias/Adam"
  input: "save/Identity_70"
  attr {
    key: "dtype"
    value {
      type: DT_FLOAT
    }
  }
}
node {
  name: "save/Identity_71"
  op: "Identity"
  input: "save/RestoreV2:70"
  attr {
    key: "T"
    value {
      type: DT_FLOAT
    }
  }
  attr {
    key: "_output_shapes"
    value {
      list {
        shape {
          unknown_rank: true
        }
      }
    }
  }
}
node {
  name: "save/AssignVariableOp_70"
  op: "AssignVariableOp"
  input: "block5_conv2/bias/Adam_1"
  input: "save/Identity_71"
  attr {
    key: "dtype"
    value {
      type: DT_FLOAT
    }
  }
}
node {
  name: "save/Identity_72"
  op: "Identity"
  input: "save/RestoreV2:71"
  attr {
    key: "T"
    value {
      type: DT_FLOAT
    }
  }
  attr {
    key: "_output_shapes"
    value {
      list {
        shape {
          unknown_rank: true
        }
      }
    }
  }
}
node {
  name: "save/AssignVariableOp_71"
  op: "AssignVariableOp"
  input: "block5_conv2/kernel"
  input: "save/Identity_72"
  attr {
    key: "dtype"
    value {
      type: DT_FLOAT
    }
  }
}
node {
  name: "save/Identity_73"
  op: "Identity"
  input: "save/RestoreV2:72"
  attr {
    key: "T"
    value {
      type: DT_FLOAT
    }
  }
  attr {
    key: "_output_shapes"
    value {
      list {
        shape {
          unknown_rank: true
        }
      }
    }
  }
}
node {
  name: "save/AssignVariableOp_72"
  op: "AssignVariableOp"
  input: "block5_conv2/kernel/Adam"
  input: "save/Identity_73"
  attr {
    key: "dtype"
    value {
      type: DT_FLOAT
    }
  }
}
node {
  name: "save/Identity_74"
  op: "Identity"
  input: "save/RestoreV2:73"
  attr {
    key: "T"
    value {
      type: DT_FLOAT
    }
  }
  attr {
    key: "_output_shapes"
    value {
      list {
        shape {
          unknown_rank: true
        }
      }
    }
  }
}
node {
  name: "save/AssignVariableOp_73"
  op: "AssignVariableOp"
  input: "block5_conv2/kernel/Adam_1"
  input: "save/Identity_74"
  attr {
    key: "dtype"
    value {
      type: DT_FLOAT
    }
  }
}
node {
  name: "save/Identity_75"
  op: "Identity"
  input: "save/RestoreV2:74"
  attr {
    key: "T"
    value {
      type: DT_FLOAT
    }
  }
  attr {
    key: "_output_shapes"
    value {
      list {
        shape {
          unknown_rank: true
        }
      }
    }
  }
}
node {
  name: "save/AssignVariableOp_74"
  op: "AssignVariableOp"
  input: "block5_conv3/bias"
  input: "save/Identity_75"
  attr {
    key: "dtype"
    value {
      type: DT_FLOAT
    }
  }
}
node {
  name: "save/Identity_76"
  op: "Identity"
  input: "save/RestoreV2:75"
  attr {
    key: "T"
    value {
      type: DT_FLOAT
    }
  }
  attr {
    key: "_output_shapes"
    value {
      list {
        shape {
          unknown_rank: true
        }
      }
    }
  }
}
node {
  name: "save/AssignVariableOp_75"
  op: "AssignVariableOp"
  input: "block5_conv3/bias/Adam"
  input: "save/Identity_76"
  attr {
    key: "dtype"
    value {
      type: DT_FLOAT
    }
  }
}
node {
  name: "save/Identity_77"
  op: "Identity"
  input: "save/RestoreV2:76"
  attr {
    key: "T"
    value {
      type: DT_FLOAT
    }
  }
  attr {
    key: "_output_shapes"
    value {
      list {
        shape {
          unknown_rank: true
        }
      }
    }
  }
}
node {
  name: "save/AssignVariableOp_76"
  op: "AssignVariableOp"
  input: "block5_conv3/bias/Adam_1"
  input: "save/Identity_77"
  attr {
    key: "dtype"
    value {
      type: DT_FLOAT
    }
  }
}
node {
  name: "save/Identity_78"
  op: "Identity"
  input: "save/RestoreV2:77"
  attr {
    key: "T"
    value {
      type: DT_FLOAT
    }
  }
  attr {
    key: "_output_shapes"
    value {
      list {
        shape {
          unknown_rank: true
        }
      }
    }
  }
}
node {
  name: "save/AssignVariableOp_77"
  op: "AssignVariableOp"
  input: "block5_conv3/kernel"
  input: "save/Identity_78"
  attr {
    key: "dtype"
    value {
      type: DT_FLOAT
    }
  }
}
node {
  name: "save/Identity_79"
  op: "Identity"
  input: "save/RestoreV2:78"
  attr {
    key: "T"
    value {
      type: DT_FLOAT
    }
  }
  attr {
    key: "_output_shapes"
    value {
      list {
        shape {
          unknown_rank: true
        }
      }
    }
  }
}
node {
  name: "save/AssignVariableOp_78"
  op: "AssignVariableOp"
  input: "block5_conv3/kernel/Adam"
  input: "save/Identity_79"
  attr {
    key: "dtype"
    value {
      type: DT_FLOAT
    }
  }
}
node {
  name: "save/Identity_80"
  op: "Identity"
  input: "save/RestoreV2:79"
  attr {
    key: "T"
    value {
      type: DT_FLOAT
    }
  }
  attr {
    key: "_output_shapes"
    value {
      list {
        shape {
          unknown_rank: true
        }
      }
    }
  }
}
node {
  name: "save/AssignVariableOp_79"
  op: "AssignVariableOp"
  input: "block5_conv3/kernel/Adam_1"
  input: "save/Identity_80"
  attr {
    key: "dtype"
    value {
      type: DT_FLOAT
    }
  }
}
node {
  name: "save/Identity_81"
  op: "Identity"
  input: "save/RestoreV2:80"
  attr {
    key: "T"
    value {
      type: DT_FLOAT
    }
  }
  attr {
    key: "_output_shapes"
    value {
      list {
        shape {
          unknown_rank: true
        }
      }
    }
  }
}
node {
  name: "save/AssignVariableOp_80"
  op: "AssignVariableOp"
  input: "dense_1/bias"
  input: "save/Identity_81"
  attr {
    key: "dtype"
    value {
      type: DT_FLOAT
    }
  }
}
node {
  name: "save/Identity_82"
  op: "Identity"
  input: "save/RestoreV2:81"
  attr {
    key: "T"
    value {
      type: DT_FLOAT
    }
  }
  attr {
    key: "_output_shapes"
    value {
      list {
        shape {
          unknown_rank: true
        }
      }
    }
  }
}
node {
  name: "save/AssignVariableOp_81"
  op: "AssignVariableOp"
  input: "dense_1/bias/Adam"
  input: "save/Identity_82"
  attr {
    key: "dtype"
    value {
      type: DT_FLOAT
    }
  }
}
node {
  name: "save/Identity_83"
  op: "Identity"
  input: "save/RestoreV2:82"
  attr {
    key: "T"
    value {
      type: DT_FLOAT
    }
  }
  attr {
    key: "_output_shapes"
    value {
      list {
        shape {
          unknown_rank: true
        }
      }
    }
  }
}
node {
  name: "save/AssignVariableOp_82"
  op: "AssignVariableOp"
  input: "dense_1/bias/Adam_1"
  input: "save/Identity_83"
  attr {
    key: "dtype"
    value {
      type: DT_FLOAT
    }
  }
}
node {
  name: "save/Identity_84"
  op: "Identity"
  input: "save/RestoreV2:83"
  attr {
    key: "T"
    value {
      type: DT_FLOAT
    }
  }
  attr {
    key: "_output_shapes"
    value {
      list {
        shape {
          unknown_rank: true
        }
      }
    }
  }
}
node {
  name: "save/AssignVariableOp_83"
  op: "AssignVariableOp"
  input: "dense_1/kernel"
  input: "save/Identity_84"
  attr {
    key: "dtype"
    value {
      type: DT_FLOAT
    }
  }
}
node {
  name: "save/Identity_85"
  op: "Identity"
  input: "save/RestoreV2:84"
  attr {
    key: "T"
    value {
      type: DT_FLOAT
    }
  }
  attr {
    key: "_output_shapes"
    value {
      list {
        shape {
          unknown_rank: true
        }
      }
    }
  }
}
node {
  name: "save/AssignVariableOp_84"
  op: "AssignVariableOp"
  input: "dense_1/kernel/Adam"
  input: "save/Identity_85"
  attr {
    key: "dtype"
    value {
      type: DT_FLOAT
    }
  }
}
node {
  name: "save/Identity_86"
  op: "Identity"
  input: "save/RestoreV2:85"
  attr {
    key: "T"
    value {
      type: DT_FLOAT
    }
  }
  attr {
    key: "_output_shapes"
    value {
      list {
        shape {
          unknown_rank: true
        }
      }
    }
  }
}
node {
  name: "save/AssignVariableOp_85"
  op: "AssignVariableOp"
  input: "dense_1/kernel/Adam_1"
  input: "save/Identity_86"
  attr {
    key: "dtype"
    value {
      type: DT_FLOAT
    }
  }
}
node {
  name: "save/Identity_87"
  op: "Identity"
  input: "save/RestoreV2:86"
  attr {
    key: "T"
    value {
      type: DT_FLOAT
    }
  }
  attr {
    key: "_output_shapes"
    value {
      list {
        shape {
          unknown_rank: true
        }
      }
    }
  }
}
node {
  name: "save/AssignVariableOp_86"
  op: "AssignVariableOp"
  input: "dense_2/bias"
  input: "save/Identity_87"
  attr {
    key: "dtype"
    value {
      type: DT_FLOAT
    }
  }
}
node {
  name: "save/Identity_88"
  op: "Identity"
  input: "save/RestoreV2:87"
  attr {
    key: "T"
    value {
      type: DT_FLOAT
    }
  }
  attr {
    key: "_output_shapes"
    value {
      list {
        shape {
          unknown_rank: true
        }
      }
    }
  }
}
node {
  name: "save/AssignVariableOp_87"
  op: "AssignVariableOp"
  input: "dense_2/bias/Adam"
  input: "save/Identity_88"
  attr {
    key: "dtype"
    value {
      type: DT_FLOAT
    }
  }
}
node {
  name: "save/Identity_89"
  op: "Identity"
  input: "save/RestoreV2:88"
  attr {
    key: "T"
    value {
      type: DT_FLOAT
    }
  }
  attr {
    key: "_output_shapes"
    value {
      list {
        shape {
          unknown_rank: true
        }
      }
    }
  }
}
node {
  name: "save/AssignVariableOp_88"
  op: "AssignVariableOp"
  input: "dense_2/bias/Adam_1"
  input: "save/Identity_89"
  attr {
    key: "dtype"
    value {
      type: DT_FLOAT
    }
  }
}
node {
  name: "save/Identity_90"
  op: "Identity"
  input: "save/RestoreV2:89"
  attr {
    key: "T"
    value {
      type: DT_FLOAT
    }
  }
  attr {
    key: "_output_shapes"
    value {
      list {
        shape {
          unknown_rank: true
        }
      }
    }
  }
}
node {
  name: "save/AssignVariableOp_89"
  op: "AssignVariableOp"
  input: "dense_2/kernel"
  input: "save/Identity_90"
  attr {
    key: "dtype"
    value {
      type: DT_FLOAT
    }
  }
}
node {
  name: "save/Identity_91"
  op: "Identity"
  input: "save/RestoreV2:90"
  attr {
    key: "T"
    value {
      type: DT_FLOAT
    }
  }
  attr {
    key: "_output_shapes"
    value {
      list {
        shape {
          unknown_rank: true
        }
      }
    }
  }
}
node {
  name: "save/AssignVariableOp_90"
  op: "AssignVariableOp"
  input: "dense_2/kernel/Adam"
  input: "save/Identity_91"
  attr {
    key: "dtype"
    value {
      type: DT_FLOAT
    }
  }
}
node {
  name: "save/Identity_92"
  op: "Identity"
  input: "save/RestoreV2:91"
  attr {
    key: "T"
    value {
      type: DT_FLOAT
    }
  }
  attr {
    key: "_output_shapes"
    value {
      list {
        shape {
          unknown_rank: true
        }
      }
    }
  }
}
node {
  name: "save/AssignVariableOp_91"
  op: "AssignVariableOp"
  input: "dense_2/kernel/Adam_1"
  input: "save/Identity_92"
  attr {
    key: "dtype"
    value {
      type: DT_FLOAT
    }
  }
}
node {
  name: "save/Identity_93"
  op: "Identity"
  input: "save/RestoreV2:92"
  attr {
    key: "T"
    value {
      type: DT_FLOAT
    }
  }
  attr {
    key: "_output_shapes"
    value {
      list {
        shape {
          unknown_rank: true
        }
      }
    }
  }
}
node {
  name: "save/AssignVariableOp_92"
  op: "AssignVariableOp"
  input: "dense_3/bias"
  input: "save/Identity_93"
  attr {
    key: "dtype"
    value {
      type: DT_FLOAT
    }
  }
}
node {
  name: "save/Identity_94"
  op: "Identity"
  input: "save/RestoreV2:93"
  attr {
    key: "T"
    value {
      type: DT_FLOAT
    }
  }
  attr {
    key: "_output_shapes"
    value {
      list {
        shape {
          unknown_rank: true
        }
      }
    }
  }
}
node {
  name: "save/AssignVariableOp_93"
  op: "AssignVariableOp"
  input: "dense_3/bias/Adam"
  input: "save/Identity_94"
  attr {
    key: "dtype"
    value {
      type: DT_FLOAT
    }
  }
}
node {
  name: "save/Identity_95"
  op: "Identity"
  input: "save/RestoreV2:94"
  attr {
    key: "T"
    value {
      type: DT_FLOAT
    }
  }
  attr {
    key: "_output_shapes"
    value {
      list {
        shape {
          unknown_rank: true
        }
      }
    }
  }
}
node {
  name: "save/AssignVariableOp_94"
  op: "AssignVariableOp"
  input: "dense_3/bias/Adam_1"
  input: "save/Identity_95"
  attr {
    key: "dtype"
    value {
      type: DT_FLOAT
    }
  }
}
node {
  name: "save/Identity_96"
  op: "Identity"
  input: "save/RestoreV2:95"
  attr {
    key: "T"
    value {
      type: DT_FLOAT
    }
  }
  attr {
    key: "_output_shapes"
    value {
      list {
        shape {
          unknown_rank: true
        }
      }
    }
  }
}
node {
  name: "save/AssignVariableOp_95"
  op: "AssignVariableOp"
  input: "dense_3/kernel"
  input: "save/Identity_96"
  attr {
    key: "dtype"
    value {
      type: DT_FLOAT
    }
  }
}
node {
  name: "save/Identity_97"
  op: "Identity"
  input: "save/RestoreV2:96"
  attr {
    key: "T"
    value {
      type: DT_FLOAT
    }
  }
  attr {
    key: "_output_shapes"
    value {
      list {
        shape {
          unknown_rank: true
        }
      }
    }
  }
}
node {
  name: "save/AssignVariableOp_96"
  op: "AssignVariableOp"
  input: "dense_3/kernel/Adam"
  input: "save/Identity_97"
  attr {
    key: "dtype"
    value {
      type: DT_FLOAT
    }
  }
}
node {
  name: "save/Identity_98"
  op: "Identity"
  input: "save/RestoreV2:97"
  attr {
    key: "T"
    value {
      type: DT_FLOAT
    }
  }
  attr {
    key: "_output_shapes"
    value {
      list {
        shape {
          unknown_rank: true
        }
      }
    }
  }
}
node {
  name: "save/AssignVariableOp_97"
  op: "AssignVariableOp"
  input: "dense_3/kernel/Adam_1"
  input: "save/Identity_98"
  attr {
    key: "dtype"
    value {
      type: DT_FLOAT
    }
  }
}
node {
  name: "save/Assign"
  op: "Assign"
  input: "global_step"
  input: "save/RestoreV2:98"
  attr {
    key: "T"
    value {
      type: DT_INT64
    }
  }
  attr {
    key: "_class"
    value {
      list {
        s: "loc:@global_step"
      }
    }
  }
  attr {
    key: "_output_shapes"
    value {
      list {
        shape {
        }
      }
    }
  }
  attr {
    key: "use_locking"
    value {
      b: true
    }
  }
  attr {
    key: "validate_shape"
    value {
      b: true
    }
  }
}
node {
  name: "save/restore_shard"
  op: "NoOp"
  input: "^save/Assign"
  input: "^save/AssignVariableOp"
  input: "^save/AssignVariableOp_1"
  input: "^save/AssignVariableOp_10"
  input: "^save/AssignVariableOp_11"
  input: "^save/AssignVariableOp_12"
  input: "^save/AssignVariableOp_13"
  input: "^save/AssignVariableOp_14"
  input: "^save/AssignVariableOp_15"
  input: "^save/AssignVariableOp_16"
  input: "^save/AssignVariableOp_17"
  input: "^save/AssignVariableOp_18"
  input: "^save/AssignVariableOp_19"
  input: "^save/AssignVariableOp_2"
  input: "^save/AssignVariableOp_20"
  input: "^save/AssignVariableOp_21"
  input: "^save/AssignVariableOp_22"
  input: "^save/AssignVariableOp_23"
  input: "^save/AssignVariableOp_24"
  input: "^save/AssignVariableOp_25"
  input: "^save/AssignVariableOp_26"
  input: "^save/AssignVariableOp_27"
  input: "^save/AssignVariableOp_28"
  input: "^save/AssignVariableOp_29"
  input: "^save/AssignVariableOp_3"
  input: "^save/AssignVariableOp_30"
  input: "^save/AssignVariableOp_31"
  input: "^save/AssignVariableOp_32"
  input: "^save/AssignVariableOp_33"
  input: "^save/AssignVariableOp_34"
  input: "^save/AssignVariableOp_35"
  input: "^save/AssignVariableOp_36"
  input: "^save/AssignVariableOp_37"
  input: "^save/AssignVariableOp_38"
  input: "^save/AssignVariableOp_39"
  input: "^save/AssignVariableOp_4"
  input: "^save/AssignVariableOp_40"
  input: "^save/AssignVariableOp_41"
  input: "^save/AssignVariableOp_42"
  input: "^save/AssignVariableOp_43"
  input: "^save/AssignVariableOp_44"
  input: "^save/AssignVariableOp_45"
  input: "^save/AssignVariableOp_46"
  input: "^save/AssignVariableOp_47"
  input: "^save/AssignVariableOp_48"
  input: "^save/AssignVariableOp_49"
  input: "^save/AssignVariableOp_5"
  input: "^save/AssignVariableOp_50"
  input: "^save/AssignVariableOp_51"
  input: "^save/AssignVariableOp_52"
  input: "^save/AssignVariableOp_53"
  input: "^save/AssignVariableOp_54"
  input: "^save/AssignVariableOp_55"
  input: "^save/AssignVariableOp_56"
  input: "^save/AssignVariableOp_57"
  input: "^save/AssignVariableOp_58"
  input: "^save/AssignVariableOp_59"
  input: "^save/AssignVariableOp_6"
  input: "^save/AssignVariableOp_60"
  input: "^save/AssignVariableOp_61"
  input: "^save/AssignVariableOp_62"
  input: "^save/AssignVariableOp_63"
  input: "^save/AssignVariableOp_64"
  input: "^save/AssignVariableOp_65"
  input: "^save/AssignVariableOp_66"
  input: "^save/AssignVariableOp_67"
  input: "^save/AssignVariableOp_68"
  input: "^save/AssignVariableOp_69"
  input: "^save/AssignVariableOp_7"
  input: "^save/AssignVariableOp_70"
  input: "^save/AssignVariableOp_71"
  input: "^save/AssignVariableOp_72"
  input: "^save/AssignVariableOp_73"
  input: "^save/AssignVariableOp_74"
  input: "^save/AssignVariableOp_75"
  input: "^save/AssignVariableOp_76"
  input: "^save/AssignVariableOp_77"
  input: "^save/AssignVariableOp_78"
  input: "^save/AssignVariableOp_79"
  input: "^save/AssignVariableOp_8"
  input: "^save/AssignVariableOp_80"
  input: "^save/AssignVariableOp_81"
  input: "^save/AssignVariableOp_82"
  input: "^save/AssignVariableOp_83"
  input: "^save/AssignVariableOp_84"
  input: "^save/AssignVariableOp_85"
  input: "^save/AssignVariableOp_86"
  input: "^save/AssignVariableOp_87"
  input: "^save/AssignVariableOp_88"
  input: "^save/AssignVariableOp_89"
  input: "^save/AssignVariableOp_9"
  input: "^save/AssignVariableOp_90"
  input: "^save/AssignVariableOp_91"
  input: "^save/AssignVariableOp_92"
  input: "^save/AssignVariableOp_93"
  input: "^save/AssignVariableOp_94"
  input: "^save/AssignVariableOp_95"
  input: "^save/AssignVariableOp_96"
  input: "^save/AssignVariableOp_97"
}
node {
  name: "save/restore_all"
  op: "NoOp"
  input: "^save/restore_shard"
}
library {
  function {
    signature {
      name: "__inference_Dataset_map_Image._parse_function_42"
      input_arg {
        name: "args_0"
        type: DT_STRING
      }
      input_arg {
        name: "args_1"
        type: DT_STRING
      }
      output_arg {
        name: "identity"
        type: DT_FLOAT
      }
      output_arg {
        name: "identity_1"
        type: DT_STRING
      }
    }
    node_def {
      name: "ReadFile"
      op: "ReadFile"
      input: "args_0"
      attr {
        key: "_output_shapes"
        value {
          list {
            shape {
            }
          }
        }
      }
    }
    node_def {
      name: "DecodeJpeg"
      op: "DecodeJpeg"
      input: "ReadFile:contents:0"
      attr {
        key: "_output_shapes"
        value {
          list {
            shape {
              dim {
                size: -1
              }
              dim {
                size: -1
              }
              dim {
                size: -1
              }
            }
          }
        }
      }
      attr {
        key: "acceptable_fraction"
        value {
          f: 1.0
        }
      }
      attr {
        key: "channels"
        value {
          i: 0
        }
      }
      attr {
        key: "dct_method"
        value {
          s: ""
        }
      }
      attr {
        key: "fancy_upscaling"
        value {
          b: true
        }
      }
      attr {
        key: "ratio"
        value {
          i: 1
        }
      }
      attr {
        key: "try_recover_truncated"
        value {
          b: false
        }
      }
    }
    node_def {
      name: "Cast"
      op: "Cast"
      input: "DecodeJpeg:image:0"
      attr {
        key: "DstT"
        value {
          type: DT_FLOAT
        }
      }
      attr {
        key: "SrcT"
        value {
          type: DT_UINT8
        }
      }
      attr {
        key: "Truncate"
        value {
          b: false
        }
      }
      attr {
        key: "_output_shapes"
        value {
          list {
            shape {
              dim {
                size: -1
              }
              dim {
                size: -1
              }
              dim {
                size: -1
              }
            }
          }
        }
      }
    }
    node_def {
      name: "resize/ExpandDims/dim"
      op: "Const"
      attr {
        key: "_output_shapes"
        value {
          list {
            shape {
            }
          }
        }
      }
      attr {
        key: "dtype"
        value {
          type: DT_INT32
        }
      }
      attr {
        key: "value"
        value {
          tensor {
            dtype: DT_INT32
            tensor_shape {
            }
            int_val: 0
          }
        }
      }
    }
    node_def {
      name: "resize/ExpandDims"
      op: "ExpandDims"
      input: "Cast:y:0"
      input: "resize/ExpandDims/dim:output:0"
      attr {
        key: "T"
        value {
          type: DT_FLOAT
        }
      }
      attr {
        key: "Tdim"
        value {
          type: DT_INT32
        }
      }
      attr {
        key: "_output_shapes"
        value {
          list {
            shape {
              dim {
                size: 1
              }
              dim {
                size: -1
              }
              dim {
                size: -1
              }
              dim {
                size: -1
              }
            }
          }
        }
      }
    }
    node_def {
      name: "resize/size"
      op: "Const"
      attr {
        key: "_output_shapes"
        value {
          list {
            shape {
              dim {
                size: 2
              }
            }
          }
        }
      }
      attr {
        key: "dtype"
        value {
          type: DT_INT32
        }
      }
      attr {
        key: "value"
        value {
          tensor {
            dtype: DT_INT32
            tensor_shape {
              dim {
                size: 2
              }
            }
            tensor_content: "@\000\000\000@\000\000\000"
          }
        }
      }
    }
    node_def {
      name: "resize/ResizeBilinear"
      op: "ResizeBilinear"
      input: "resize/ExpandDims:output:0"
      input: "resize/size:output:0"
      attr {
        key: "T"
        value {
          type: DT_FLOAT
        }
      }
      attr {
        key: "_output_shapes"
        value {
          list {
            shape {
              dim {
                size: 1
              }
              dim {
                size: 64
              }
              dim {
                size: 64
              }
              dim {
                size: -1
              }
            }
          }
        }
      }
      attr {
        key: "align_corners"
        value {
          b: false
        }
      }
      attr {
        key: "half_pixel_centers"
        value {
          b: false
        }
      }
    }
    node_def {
      name: "resize/Squeeze"
      op: "Squeeze"
      input: "resize/ResizeBilinear:resized_images:0"
      attr {
        key: "T"
        value {
          type: DT_FLOAT
        }
      }
      attr {
        key: "_output_shapes"
        value {
          list {
            shape {
              dim {
                size: 64
              }
              dim {
                size: 64
              }
              dim {
                size: -1
              }
            }
          }
        }
      }
      attr {
        key: "squeeze_dims"
        value {
          list {
            i: 0
          }
        }
      }
    }
    node_def {
      name: "Identity"
      op: "Identity"
      input: "resize/Squeeze:output:0"
      attr {
        key: "T"
        value {
          type: DT_FLOAT
        }
      }
      attr {
        key: "_output_shapes"
        value {
          list {
            shape {
              dim {
                size: 64
              }
              dim {
                size: 64
              }
              dim {
                size: -1
              }
            }
          }
        }
      }
    }
    node_def {
      name: "Identity_1"
      op: "Identity"
      input: "args_1"
      attr {
        key: "T"
        value {
          type: DT_STRING
        }
      }
      attr {
        key: "_output_shapes"
        value {
          list {
            shape {
            }
          }
        }
      }
    }
    ret {
      key: "identity"
      value: "Identity:output:0"
    }
    ret {
      key: "identity_1"
      value: "Identity_1:output:0"
    }
    attr {
      key: "_input_shapes"
      value {
        list {
          shape {
          }
          shape {
          }
        }
      }
    }
    arg_attr {
      value {
        attr {
          key: "_user_specified_name"
          value {
            s: "args_0"
          }
        }
      }
    }
    arg_attr {
      key: 1
      value {
        attr {
          key: "_user_specified_name"
          value {
            s: "args_1"
          }
        }
      }
    }
  }
  function {
    signature {
      name: "__inference_Dataset_map_Image._parse_augmentation_options_49"
      input_arg {
        name: "args_0"
        type: DT_FLOAT
      }
      input_arg {
        name: "args_1"
        type: DT_STRING
      }
      output_arg {
        name: "identity"
        type: DT_FLOAT
      }
      output_arg {
        name: "identity_1"
        type: DT_STRING
      }
    }
    node_def {
      name: "Identity"
      op: "Identity"
      input: "args_0"
      attr {
        key: "T"
        value {
          type: DT_FLOAT
        }
      }
      attr {
        key: "_output_shapes"
        value {
          list {
            shape {
              dim {
                size: 64
              }
              dim {
                size: 64
              }
              dim {
                size: -1
              }
            }
          }
        }
      }
    }
    node_def {
      name: "Identity_1"
      op: "Identity"
      input: "args_1"
      attr {
        key: "T"
        value {
          type: DT_STRING
        }
      }
      attr {
        key: "_output_shapes"
        value {
          list {
            shape {
            }
          }
        }
      }
    }
    ret {
      key: "identity"
      value: "Identity:output:0"
    }
    ret {
      key: "identity_1"
      value: "Identity_1:output:0"
    }
    attr {
      key: "_input_shapes"
      value {
        list {
          shape {
            dim {
              size: 64
            }
            dim {
              size: 64
            }
            dim {
              size: -1
            }
          }
          shape {
          }
        }
      }
    }
    arg_attr {
      value {
        attr {
          key: "_user_specified_name"
          value {
            s: "args_0"
          }
        }
      }
    }
    arg_attr {
      key: 1
      value {
        attr {
          key: "_user_specified_name"
          value {
            s: "args_1"
          }
        }
      }
    }
  }
  function {
    signature {
      name: "__inference_Dataset_map_Image._norm_function_58"
      input_arg {
        name: "args_0"
        type: DT_FLOAT
      }
      input_arg {
        name: "args_1"
        type: DT_STRING
      }
      output_arg {
        name: "identity"
        type: DT_FLOAT
      }
      output_arg {
        name: "identity_1"
        type: DT_STRING
      }
    }
    node_def {
      name: "truediv/y"
      op: "Const"
      attr {
        key: "_output_shapes"
        value {
          list {
            shape {
            }
          }
        }
      }
      attr {
        key: "dtype"
        value {
          type: DT_FLOAT
        }
      }
      attr {
        key: "value"
        value {
          tensor {
            dtype: DT_FLOAT
            tensor_shape {
            }
            float_val: 255.0
          }
        }
      }
    }
    node_def {
      name: "truediv"
      op: "RealDiv"
      input: "args_0"
      input: "truediv/y:output:0"
      attr {
        key: "T"
        value {
          type: DT_FLOAT
        }
      }
      attr {
        key: "_output_shapes"
        value {
          list {
            shape {
              dim {
                size: 64
              }
              dim {
                size: 64
              }
              dim {
                size: -1
              }
            }
          }
        }
      }
    }
    node_def {
      name: "Identity"
      op: "Identity"
      input: "truediv:z:0"
      attr {
        key: "T"
        value {
          type: DT_FLOAT
        }
      }
      attr {
        key: "_output_shapes"
        value {
          list {
            shape {
              dim {
                size: 64
              }
              dim {
                size: 64
              }
              dim {
                size: -1
              }
            }
          }
        }
      }
    }
    node_def {
      name: "Identity_1"
      op: "Identity"
      input: "args_1"
      attr {
        key: "T"
        value {
          type: DT_STRING
        }
      }
      attr {
        key: "_output_shapes"
        value {
          list {
            shape {
            }
          }
        }
      }
    }
    ret {
      key: "identity"
      value: "Identity:output:0"
    }
    ret {
      key: "identity_1"
      value: "Identity_1:output:0"
    }
    attr {
      key: "_input_shapes"
      value {
        list {
          shape {
            dim {
              size: 64
            }
            dim {
              size: 64
            }
            dim {
              size: -1
            }
          }
          shape {
          }
        }
      }
    }
    arg_attr {
      value {
        attr {
          key: "_user_specified_name"
          value {
            s: "args_0"
          }
        }
      }
    }
    arg_attr {
      key: 1
      value {
        attr {
          key: "_user_specified_name"
          value {
            s: "args_1"
          }
        }
      }
    }
  }
}
versions {
  producer: 134
  min_consumer: 12
}
